agent2_checkpoint_critic.pth (torch_old, 164645 bytes, 5 tensors)

fcs1.weight f4 [200, 52]
-0.07163063 -0.38765317 0.030565105 0.0721347 0.14104533 0.15556827 -0.076573856 0.07153943
0.044420555 -0.41294184 -0.021347648 -0.26113263 -0.20238733 -0.20655467 -0.019808637 -0.2553502
0.03527874 -0.4182217 -0.051239166 -0.45115218 -0.41524535 -0.41430068 -0.06231533 -0.49935153
0.048490174 0.26928833 -0.014369155 -0.03562761 -0.064087585 0.056742545 -0.016721094 -0.080471426
0.15729618 0.2497133 0.062733606 -0.09340252 0.1213493 -0.12894005 0.05156004 -0.13473193
0.16852777 0.27601632 -0.024272759 -0.09106659 0.46611494 -0.38051373 0.0215526 -0.08268385
-0.98810464 -0.3199297 1.1550208 0.59585935 0.29969445 0.15753789 -0.047139388 0.02254082
0.006008202 -0.024322221 0.022779344 -0.022014199 0.46722177 -0.06466167 -0.049619786 -0.059349656
-0.09484291 0.4712385 0.05497004 -0.034483258 0.6476619 -0.18875638 0.018468723 0.107279904
-0.08196968 0.81944084 0.03878477 0.111324675 0.17259282 -0.032311726 0.011597834 0.04475169
0.009341068 0.08073401 -1.063192e-05 0.054367475 0.25315973 -0.31442693 0.0033581748 -0.10691293
0.1629241 0.49245298 -0.019758329 -0.09191451 0.422524 -0.5459041 -0.06449356 0.030479228
-0.01093701 0.87572706 0.0040675863 0.02064039 1.4272362 0.30022523 -0.39895836 -0.34724787
0.1764569 -0.008295508 0.015011206 0.29827753 0.14829963 0.09371901 -0.06299531 0.24635841
0.13794628 -0.046660107 -0.042822607 0.22078945 0.2166531 0.02077082 0.06413455 0.12580045
0.0953643 0.10107894 -0.10213565 0.54843336 0.18355927 -0.29196623 -0.11068629 0.6180013
0.01204182 0.6215044 0.06631903 0.15039794 -0.07775785 0.11949277 0.04649164 0.10641513
0.18289846 0.48073596 0.016460229 -0.07732534 -0.2445684 0.06189024 0.0398227 -0.14921138
0.20700094 0.5420269 -0.046907958 -0.12892877 -0.23199064 -0.36196986 -0.03529327 -0.19287968
-0.30223912 -0.26841664 0.42082813 -0.5555713 0.35562497 -0.5505406 -0.018340923 0.0871699
0.1096652 0.22501045 0.077877305 0.07050612 0.28628448 -0.5058429 0.000387576 -0.14383404
-0.08908958 -0.11376893 -0.013957637 -0.13165097 0.35700014 -0.53876615 -0.14210492 -0.08251141
-0.29234388 -1.009187 -0.12398398 -0.11185123 -0.046298616 -0.52352685 0.01241195 0.22775052
-0.1178318 0.31078437 -0.0024338935 0.23523693 -0.048832368 -0.6253278 0.029730633 -0.16776137
-0.02382145 -0.1445276 0.009488554 -0.12360807 -0.03435647 -0.6162236 -0.015417242 -0.10182083
0.36025706 -0.938415 0.07021975 -0.070479035 0.045414265 -1.2799413 1.0429051 -0.3456556
0.10092273 0.593842 -0.01888615 -0.5031011 -0.07250283 -0.6736526 -0.048175193 -0.43890768
0.2823881 0.37699932 -0.009038102 -0.481765 0.24256586 -0.56087184 0.038038544 -0.46461228
0.32246286 0.28019816 0.06333829 0.091782615 0.42824638 -0.6909993 -0.022178339 0.048644107
0.35503948 -0.006173198 0.03049134 0.085715204 -0.004622267 -0.64777905 0.057225585 0.055398155
0.48133048 0.22993292 -0.054920167 0.39333892 -0.18129009 -0.50846535 -0.023011256 0.3478725
0.5027968 0.28274578 -0.018140186 0.21612555 -0.41487712 -0.71186286 0.020180661 0.1921019
00000000: 14b3 92bd 7a7a c6be ac63 fa3c 5cbb 933d
00000010: 306e 103e 4a4d 1f3e c1d2 9cbd 4483 923d
00000020: 54f2 353d 1d6d d3be 43e1 aebc 2db3 85be
00000030: a03e 4fbe 1183 53be b945 a2bc 43bd 82be
00000040: 7180 103d 2821 d6be 29e0 51bd 6bfd e6be
00000050: 0a9b d4be 381f d4be 5c3e 7fbd 01ab ffbe
00000060: a29d 463d 29e0 893e 9b6c 6bbc 42ee 11bd
00000070: 5a40 83bd df6a 683d adfa 88bc 34ce a4bd
00000080: 4012 213e d8b4 7f3e 7a7a 803d d249 bfbd
00000090: fb85 f83d dc08 04be 9f30 533d 2bf7 09be
000000a0: 8b92 2c3e 0352 8d3e aad7 c6bc 1f81 babd
000000b0: 9ea6 ee3e b2d2 c2be 148f b03c 2656 a9bd
000000c0: 6df4 7cbf d3cd a3be b9d7 933f 3d8a 183f
000000d0: 8d71 993e 9d51 213e 3b15 41bd 87a7 b83c
000000e0: 74e0 c43b 653f c7bc bf9b ba3c 1f57 b4bc
000000f0: b137 ef3e 566d 84bd 1e3e 4bbd a018 73bd
00000100: 003d c2bd 2c46 f13e 4428 613d 513e 0dbd
00000110: 2ccd 253f 5a49 41be b84b 973c 91b5 db3d
00000120: b8df a7bd e0c6 513f c7dc 1e3d 31fe e33d
00000130: 2cbc 303e 4d59 04bd d704 3e3c 8c4d 373d
00000140: 470b 193c df57 a53d c05f 32b7 6eb0 5e3d
00000150: 279e 813e 91fc a0be d314 5c3b 2bf5 dabd
00000160: 93d5 263e cc22 fc3e 38dc a1bc ad3d bcbd
00000170: 1155 d83e 5fc0 0bbf 3315 84bd 93af f93c
00000180: 2531 33bc a62f 603f 6349 853b 0916 a93c
00000190: adaf b63f 1fb7 993e 4544 ccbe 79ca b1be
000001a0: 1eb1 343e e2e9 07bc 90f1 753c d5b7 983e
000001b0: dcdb 173e c1ef bf3d af03 81bd 6145 7c3e
000001c0: ca41 0d3e ab1e 3fbd c266 2fbd a116 623e
000001d0: 4fda 5d3e 9127 aa3c fa58 833d d5d1 003e
000001e0: 5c4e c33d 7a02 cf3d 7f2c d1bd 2166 0c3f
000001f0: f6f6 3b3e 997c 95be 7eaf e2bd 5535 1e3f
00000200: 0e4b 453c ea1a 1f3f 46d2 873d eb01 1a3e
00000210: 823f 9fbd a0b8 f43d 056e 3e3d 2df0 d93d
00000220: bc49 3b3e 0623 f63e 9ad7 863c bf5c 9ebd
00000230: 2370 7abe 9f80 7d3d 211d 233d deca 18be
00000240: 0ef8 533e 46c2 0a3f 8f22 40bd e705 04be
00000250: f48e 6dbe 1d54 b9be ad8f 10bd 4082 45be
00000260: 16bf 9abe e86d 89be c976 d73e ec39 0ebf
00000270: 7a14 b63e 3bf0 0cbf b43f 96bc 2286 b23d
00000280: 2698 e03d 2469 663e 237e 9f3d 8365 903d
00000290: e193 923e ec7e 01bf 9233 cb39 3b49 13be
000002a0: 9974 b6bd afff e8bd 93ae 64bc 83cf 06be
000002b0: b9c8 b63e 94ec 09bf f483 11be befb a8bd
000002c0: 19ae 95be 0a2d 81bf 50eb fdbd 4212 e5bd
000002d0: 9ea3 3dbd db05 06bf 7e5b 4b3c 6f37 693e
000002e0: cc51 f1bd 211f 9f3e f581 1fbb f3e1 703e
000002f0: 7304 48bd 7c15 20bf a88d f33c a3c9 2bbe
00000300: 3425 c3bc 0bff 13be e175 1b3c 3a26 fdbd
00000310: 5fb9 0cbd d4c0 1dbf 9a98 7cbc 7087 d0bd
00000320: 9d73 b83e f73b 70bf 5fcf 8f3d 5057 90bd
00000330: 4f04 3a3d 1ed5 a3bf ea7d 853f c5f9 b0be
00000340: 94b0 ce3d 0806 183f 21b7 9abc 3ccb 00bf
00000350: 5d7c 94bd 7f74 2cbf 5a53 45bd 82b8 e0be
00000360: 2c95 903e 0e06 c13e 8c14 14bc e7a9 f6be
00000370: 2f63 783e 4c95 0fbf 4ece 1b3d a9e1 edbe
00000380: da19 a53e 2276 8f3e 81b7 813d 86f8 bb3d
00000390: 1c43 db3e 55e5 30bf 59af b5bc 0b3f 473d
000003a0: bcc7 b53e 8a48 cabb fac8 f93c 748b af3d
000003b0: 6376 97bb d9d4 25bf 6065 6a3d 2de9 623d
000003c0: f370 f63e 8973 6b3e f8f3 60bd b863 c93e
000003d0: 1ca4 39be c92a 02bf 1a82 bcbc 581c b23e
000003e0: 4bb7 003f 0ec4 903e ba9a 94bc 0450 5d3e
000003f0: c66a d4be a53c 36bf ea51 a53c 5cb6 443e

fcs1.bias f4 [200]
-0.42386913 -1.1217712 -0.34375012 0.6033912 -0.421975 -0.5097622 -0.3966874 -0.16149025
-0.39826575 -0.17437181 -0.49585882 -0.5540592 0.050702795 -0.5536066 -0.31572726 -0.45117652
-0.7445919 -0.44786575 -0.4768958 -0.090165675 0.16346984 0.20894098 -0.19075711 -0.2539366
-0.220721 -0.65689594 -0.036683615 0.0031316904 -0.55384815 0.3152311 0.3296074 -0.28994945
-0.17281914 -0.007568125 -0.37949458 -0.5587363 -0.37696213 -0.07404862 -0.37852454 -0.3343159
-0.78765607 -0.5201886 0.056966383 -0.3993224 -0.87803394 -0.34211427 -0.38400912 -0.4304301
-0.063099846 0.008068597 0.32129577 -0.39887565 -0.070361644 0.7356094 -0.35379216 -0.5107105
-0.38770515 -0.27339864 -0.36494535 -0.56435126 -0.74072945 0.041405942 0.103765525 -0.46217817
-0.28745857 -0.09906309 -0.22511289 -0.0032603522 -0.27877292 -0.20967987 -0.42476556 0.26566583
-0.37161538 -0.3495032 0.124073885 -0.19867018 -0.8793701 0.08774025 -0.26376244 -0.53565294
-0.585147 0.5605112 -0.27397886 -0.18481089 -0.010844129 0.042175498 -0.1781566 -0.54056937
-0.41080922 0.46521443 0.04928898 -0.7847582 -0.21397476 -0.050669275 -0.42566308 -0.12593564
0.20509966 0.19632809 -0.3062328 -0.22540092 -0.24950819 -0.2500214 -0.6428504 0.13668372
0.07850981 -0.4098488 -0.38852176 -0.6364539 -0.51664484 -0.29810667 -0.23959985 -0.57385427
0.034830887 -1.4926859 -0.14312622 -0.4965514 -0.5159481 -0.15106446 -0.49052185 -0.65064555
0.15098396 -0.14563465 -0.09383675 -0.5952115 -0.60769564 -0.51423365 0.11114509 -0.39023647
-0.43536863 0.56419206 -0.4807371 -0.21264769 0.20283647 0.010668519 -0.58084744 0.13381544
-0.24696617 0.51397604 -0.65824217 -1.0608976 -0.3916749 -0.24577685 -0.3144967 -0.21791483
-0.74316424 -0.139236 -0.02553246 -0.3502508 -0.102672316 -0.33539596 -0.9235113 -0.5303306
-0.583599 -0.4193809 -0.08129613 -0.36020893 -0.47909412 -0.3528849 0.79194915 -0.13757373
0.020557113 -0.5647231 -0.9176484 0.03457391 -0.026751325 0.040187422 -0.58700705 -0.31792763
-0.13798547 -0.23080891 -0.37650913 -0.7303346 0.7002185 -0.18348798 0.03492833 -0.048222996
-0.251495 -0.14818093 -0.34074238 -0.12054686 -0.29945362 0.042173143 -0.10019619 -0.20363751
-0.7827659 -0.42623317 -0.49558082 -0.04133009 0.30339673 -0.17882602 -0.3054724 -0.40819353
-0.9458141 -0.4355644 -0.8199781 -0.009170808 -0.0905699 -0.4437939 0.26174855 -0.82701176
00000000: 6005 d9be 3396 8fbf 0400 b0be d877 1a3f
00000010: 1b0d d8be c77f 02bf 9c1a cbbe b35d 25be
00000020: 7de9 cbbe 868e 32be 35e1 fdbe d3d6 0dbf
00000030: bcad 4f3d 2ab9 0dbf 01a7 a1be 9c00 e7be
00000040: 939d 3ebf a94e e5be b02b f4be c8a8 b8bd
00000050: a364 273e a0f4 553e d555 43be fa03 82be
00000060: b004 62be 552a 28bf 8f41 16bd 0c3d 4d3b
00000070: fec8 0dbf f965 a13e 4dc2 a83e 4174 94be
00000080: 80f7 30be 09fe f7bb 1d4d c2be 5809 0fbf
00000090: 2e01 c1be cea6 97bd f8cd c1be 742b abbe
000000a0: d4a3 49bf 152b 05bf 9555 693d fc73 ccbe
000000b0: d5c6 60bf 9a29 afbe d89c c4be 5661 dcbe
000000c0: 7e3a 81bd 2632 043c e180 a43e 6e39 ccbe
000000d0: c419 90bd e650 3c3f 3f24 b5be ecbd 02bf
000000e0: 4a81 c6be e8fa 8bbe 1eda babe 5379 10bf
000000f0: 72a0 3dbf 4799 293d 0583 d43d 9ea2 ecbe
00000100: c52d 93be 97e1 cabd fe83 66be a2ab 55bb
00000110: 53bb 8ebe 52b6 56be df7a d9be 5a05 883e
00000120: 5f44 bebe 15f2 b2be 731a fe3d 3270 4bbe
00000130: 661e 61bf 29b1 b33d df0b 87be 8d20 09bf
00000140: 32cc 15bf a97d 0f3f f546 8cbe 113f 3dbe
00000150: 93ab 31bc 37c0 2c3d af6e 36be c162 0abf
00000160: 9655 d2be 9630 ee3e 3ee3 493d eae5 48bf
00000170: 331c 5bbe 968a 4fbd 83f0 d9be 46f5 00be
00000180: a505 523e 3b0a 493e 8cca 9cbe 80cf 66be
00000190: 137f 7fbe ce02 80be d891 24bf d1f6 0b3e
000001a0: c0c9 a03d b4d7 d1be 53ec c6be a5ee 22bf
000001b0: d642 04bf 70a1 98be aa59 75be 1de8 12bf
000001c0: d5aa 0e3d 5510 bfbf ae8f 12be fc3b febe
000001d0: 2d15 04bf a4b0 1abe ae25 fbbe b590 26bf
000001e0: 8a9b 1a3e 4021 15be 7b2d c0bd c85f 18bf
000001f0: f191 1bbf d1a4 03bf 09a0 e33d 13cd c7be
00000200: a3e8 debe e46e 103f 2c23 f6be 51c0 59be
00000210: 5db4 4f3e 03cb 2e3c 6bb2 14bf ea06 093e
00000220: b3e4 7cbe ef93 033f 8f82 28bf 7ecb 87bf
00000230: 9d89 c8be edac 7bbe b605 a1be 1125 5fbe
00000240: 0340 3ebf e293 0ebe 7329 d1bc 1354 b3be
00000250: dd45 d2bd 05b9 abbe 3d6b 6cbf bfc3 07bf
00000260: be66 15bf 18b9 d6be 967e a6bd 4e6d b8be
00000270: d34b f5be 54ad b4be 2ebd 4a3f 21e0 0cbe
00000280: 6467 a83c b191 10bf 01eb 6abf 5f9d 0d3d
00000290: 9825 dbbc 919b 243d 1846 16bf 69c7 a2be
000002a0: 104c 0dbe 2c59 6cbe cec5 c0be 35f7 3abf
000002b0: 8541 333f 46e4 3bbe 0211 0f3d 7a85 45bd
000002c0: f4c3 80be bebc 17be c975 aebe 46e1 f6bd
000002d0: fc51 99be bfbd 2c3d a933 cdbd 5a86 50be
000002e0: 5963 48bf 3c3b dabe c5bc fdbe be49 29bd
000002f0: d156 9b3e 2b1e 37be e166 9cbe befe d0be
00000300: df20 72bf 4c02 dfbe 16ea 51bf 2841 16bc
00000310: b67c b9bd f438 e3be e803 863e 0bb7 53bf

fc2.weight f4 [150, 200]
0.05154682 -0.047130924 -0.06169714 -0.08066209 0.019700577 -0.04395538 0.04016245 -0.017791573
-0.090221345 -0.053225245 -0.020118946 -0.021248112 -0.028196458 -0.12409909 -0.0123210205 -0.09693517
-0.07337359 0.027193205 -0.13339812 0.009166795 0.013376085 -0.026631001 -0.057191532 -0.099596016
0.06249188 -0.0010384454 -0.019932235 -0.015568805 -0.06666792 -0.00873299 -0.0064260396 -0.0399197
-0.03684706 -0.025635237 -0.08870121 -0.10916094 0.11257468 -0.08573014 -0.06257356 -0.06581398
-0.050359666 0.01399882 -0.045691114 -0.022621168 0.026022831 -0.040989567 -0.10646978 -0.062270574
-0.15450658 -0.061802614 0.09363552 -0.09200641 0.06229293 -0.075300716 -0.16616036 -0.021521479
-0.11187433 -0.03919974 -0.13274677 -0.09358207 -0.14217377 0.00337905 -0.010532402 0.023382079
-0.015333032 -0.023590952 0.017363757 -0.072071426 -0.074391715 0.07338886 -0.09708527 -0.10899591
-0.06681996 0.015787125 -0.06698457 -0.016180411 -0.051614705 -0.033960856 -0.116161644 0.051773183
-0.013339816 -0.059092127 -0.07063762 -0.1147447 -0.046537705 -0.014285309 0.0035358449 -0.081897914
-0.022813346 -0.10290838 0.021641176 -0.07712642 -0.026966983 -0.0033854507 0.037302203 -0.17741577
-0.03705481 -0.12043777 0.0064433548 -0.01753925 -0.010292908 -0.07175863 0.09084782 -0.03674346
-0.009853422 -0.043843195 0.03326614 -0.11880866 0.03850037 -0.0009339541 -0.04077249 -0.040802598
-0.07286854 -0.089938685 -0.029468752 -0.025139429 0.031759605 0.044370975 -0.004502391 -0.06872339
-0.015105964 -0.009952729 -0.104250394 0.009534213 -0.11831568 -0.013914525 -0.031333767 -0.0012801415
0.021291304 -0.07646443 -0.042701766 -0.012978687 -0.04754092 -0.0182722 -0.030025406 -0.08563604
0.027227236 -0.028612282 -0.007847312 -0.07043516 0.028568566 -0.00024515056 -0.064678 -0.13717125
-0.09813384 -0.046450835 -0.14332876 0.021232294 -0.06559238 0.08962937 -0.005925677 -0.019088313
-0.08609725 -0.011662594 8.584514e-05 -0.065416254 0.02461161 0.054409057 -0.028854774 0.020304032
0.013833478 -0.08384856 -0.016775047 0.027158877 0.023514874 0.010783689 -0.07912621 -0.0030910503
-0.06421474 -0.0698966 0.021173272 -0.103098616 -0.048716653 0.045357484 -0.052145194 -0.24927153
-0.027256306 0.038203035 -0.01646544 -0.077429205 -0.088802785 0.018017288 -0.08586404 -0.16011275
-0.10235466 -0.11000313 -0.04892929 -0.024191676 0.030983299 -0.09804917 -0.06945772 -0.08533402
-0.072569 0.026173737 0.04576956 -0.0018135356 0.0015919711 0.025546547 0.026772177 -0.048924077
0.0427841 -0.21243256 0.0036560486 0.07862377 0.17352524 -0.04003281 0.052664 0.20746247
-0.096566014 -0.086108215 -0.17579746 -0.047821086 0.10949293 -0.15475059 0.0034412795 0.10035848
0.13615704 -0.051237315 -0.002423694 0.049727056 0.08812772 0.18919301 0.033951744 0.06860939
0.035104547 -0.098942526 0.27215973 0.004270368 -0.023142993 0.027711265 0.002035548 0.087959915
-0.01846903 0.03086451 -0.04914959 -0.037460234 -0.023296062 0.020842953 0.05054184 0.018936574
-0.31249154 0.026787499 0.0028532683 0.051143784 0.16148761 -0.0352344 -0.32283092 0.01891666
-0.05178992 -0.0011571046 0.066214554 0.004134261 -0.08264516 0.19384731 -0.004208078 -0.050703708
00000000: c222 533d 5b0c 41bd 24b6 7cbd 2a32 a5bd
00000010: 1b63 a13c 8e0a 34bd 6281 243d a2bf 91bc
00000020: f8c5 b8bd b702 5abd 7dd0 a4bc 8510 aebc
00000030: 42fc e6bc aa27 febd 1bde 49bc f285 c6bd
00000040: e544 96bd 49c4 de3c 8499 08be 5330 163c
00000050: 5e27 5b3c 4229 dabc ab41 6abd fff8 cbbd
00000060: 7cf7 7f3d 721c 88ba ed48 a3bc 4d14 7fbc
00000070: 3189 88bd d114 0fbc 8791 d2bb d782 23bd
00000080: f1ec 16bd fd00 d2bc fba8 b5bd c58f dfbd
00000090: 8e8d e63d 4993 afbd 9126 80bd 7bc9 86bd
000000a0: f045 4ebd 4f5b 653c 9b26 3bbd 0750 b9bc
000000b0: d52d d53c ade4 27bd d40c dabd 6e0f 7fbd
000000c0: f936 1ebe bd24 7dbd fbc3 bf3d db6d bcbd
000000d0: df26 7f3d 4337 9abd f125 2abe d04d b0bc
000000e0: 5e1e e5bd e88f 20bd c5ee 07be f5a7 bfbd
000000f0: 0096 11be 0d73 5d3b 1990 2cbc c68b bf3c
00000100: 6637 7bbc d041 c1bc 703e 8e3c 2f9a 93bd
00000110: af5a 98bd e64c 963d a4d4 c6bd 3f39 dfbd
00000120: e7d8 88bd 0054 813c 352f 89bd c88c 84bc
00000130: f169 53bd 8a1a 0bbd 28e6 edbd 1e10 543d
00000140: 3e8f 5abc 960a 72bd 75aa 90bd 45ff eabd
00000150: 529e 3ebd ee0c 6abc a2b9 673b 18ba a7bd
00000160: 0ee3 babc a1c1 d2bd d648 b13c 75f4 9dbd
00000170: dde9 dcbc 70de 5dbb 32ca 183d 7bac 35be
00000180: c9c6 17bd 14a8 f6bd c722 d33b 79ae 8fbc
00000190: 96a3 28bc 30f6 92bd 6c0e ba3d 4f80 16bd
000001a0: 3f70 21bc ec94 33bd 1342 083d f451 f3bd
000001b0: 90b2 1d3d 99d4 74ba 0e01 27bd a020 27bd
000001c0: 1a3c 95bd c631 b8bd 7468 f1bc 34f1 cdbc
000001d0: 5c16 023d 57be 353d cb88 93bb d9be 8cbd
000001e0: 017f 77bc c510 23bc 3b81 d5bd 6335 1c3c
000001f0: 7e4f f2bd bff9 63bc d657 00bd 6cca a7ba
00000200: 1a6b ae3c 6299 9cbd 0ce8 2ebd 8fa4 54bc
00000210: 45ba 42bd 95af 95bc d7f7 f5bc f361 afbd
00000220: a70b df3c 4e64 eabc 0392 00bc 4f40 90bd
00000230: a008 ea3c 8d87 80b9 e675 84bd 9f76 0cbe
00000240: 65fa c8bd 3b43 3ebd c6c4 12be 59ef ad3c
00000250: 4c55 86bd 9a8f b73d 2e2c c2bb 185f 9cbc
00000260: c153 b0bd 7714 3fbc c207 b438 f5f8 85bd
00000270: 4a9e c93c 08dc 5e3d d960 ecbc a454 a63c
00000280: d0a5 623c cbb8 abbd d36b 89bc 4b7c de3c
00000290: 44a2 c03c 12ae 303c ec0c a2bd 3893 4abb
000002a0: 0583 83bd f325 8fbd 9273 ad3c 5e25 d3bd
000002b0: 1d8b 47bd c5c8 393d 3396 55bd 0941 7fbe
000002c0: 9e48 dfbc c97a 1c3d 88e2 86bc 3493 9ebd
000002d0: 3cde b5bd fe98 933c 7cd9 afbd 99f4 23be
000002e0: 529f d1bd 5249 e1bd 146a 48bd 9f2d c6bc
000002f0: b0d0 fd3c 01ce c8bd d93f 8ebd 9ac3 aebd
00000300: 0e9f 94bd 4e6a d63c dd78 3b3d 28b4 edba
00000310: b0a9 d03a fe46 d13c 5351 db3c 9d64 48bd
00000320: 613e 2f3d ec87 59be 519a 6f3b 8005 a13d
00000330: 9ab0 313e 72f9 23bd 35b6 573d 0b71 543e
00000340: 67c4 c5bd 8159 b0bd 4004 34be 0be0 43bd
00000350: d43d e03d f076 1ebe 1787 613b bf88 cd3d
00000360: c06c 0b3e 38de 51bd d6d6 1ebb 99ae 4b3d
00000370: 4e7c b43d d0bb 413e fc10 0b3d 1483 8c3d
00000380: c9c9 0f3d 61a2 cabd 8558 8b3e 71ee 8b3b
00000390: 6096 bdbc bc02 e33c d466 053b 5424 b43d
000003a0: 5d4c 97bc 92d7 fc3c 1551 49bd e76f 19bd
000003b0: 62d7 bebc d7be aa3c f604 4f3d e020 9b3c
000003c0: e4fe 9fbe 7571 db3c e6fd 3a3b 257c 513d
000003d0: 025d 253e f251 10bd 184a a5be 1df7 9a3c
000003e0: ab21 54bd fda9 97ba 7f9b 873d b278 873b
000003f0: de41 a9bd e97f 463e ebe3 89bb b1ae 4fbd

fc2.bias f4 [150]
-0.16047598 0.13321236 0.1990434 0.01302438 -0.695427 -0.39901218 1.1912806 -0.28468528
-0.11812047 -0.27102718 0.00020467237 0.28403747 -0.16027987 -0.043773845 -0.11489822 -0.12667163
-0.14330302 -0.11805602 0.06331893 -0.16177996 -0.15117347 -0.1253668 -0.04117227 0.060797192
-0.05749608 -0.1869452 -0.07313372 0.32486057 -0.09960129 -0.079364255 -0.10155477 -0.09963677
-0.030113561 -0.5168664 -0.13647594 -0.11757206 -0.031937767 -0.28252026 0.042113096 -0.17065588
-0.32457632 0.30083233 -0.12025079 -0.1885554 -0.15330933 -0.03543386 -0.10729192 -0.18330537
0.21626861 0.037663646 -0.14321938 0.07852801 0.37741032 0.7696566 -0.11844568 -0.099589065
-0.021500451 -0.11710074 0.11282971 -0.15977181 -0.17254877 -0.09160778 0.3282112 0.096230395
-0.1351844 -0.23138264 -0.052208398 -0.3284853 -0.064636566 -0.06487038 0.0134642925 -0.10171586
-0.07128845 -0.8334739 -0.11074082 -0.1313191 -0.22600019 -0.15286888 -0.09123735 -0.041512333
-0.5463156 -0.111372605 -0.2787774 -0.043966793 -0.12041655 -0.17343199 0.014903871 -0.10938374
-0.1290527 0.051401436 -0.03338043 -0.039962664 -0.12509663 -0.19529292 -0.14153098 -0.22525132
0.5927502 -0.11910222 -0.23567863 0.03908943 -0.1058068 -0.09462115 0.17096016 -0.43376133
-0.066713706 -0.79147416 -0.0106283985 -0.17543945 -0.1258123 0.10125519 -0.11073056 -0.2259865
-0.42706528 -0.52352685 -0.18802665 -0.1184851 -0.13309562 -0.07493611 -0.07385745 -0.1917464
-0.16193162 -0.1471559 -0.12899908 -0.14583787 -0.14713201 -0.13872543 -0.12391385 -0.13003944
-0.11121996 -0.10502061 -0.2417543 -0.15542668 -0.11500392 -0.26407135 -0.08179417 -0.16804458
-0.15080558 -0.118269555 -0.17798813 -0.07519781 -0.084163174 -0.035946388 -0.052342553 -0.19291349
-0.21052672 1.0583109 -0.48432487 -0.06959319 -0.11886868 -0.14084733
00000000: d153 24be d268 083e 08d2 4b3e 3664 553c
00000010: 8107 32bf 534b ccbe e27b 983f 45c2 91be
00000020: 25e9 f1bd 13c4 8abe 529d 5639 5c6d 913e
00000030: 6820 24be 344c 33bd c24f ebbd 35b6 01be
00000040: 07be 12be 5bc7 f1bd 5bad 813d a5a9 25be
00000050: 38cd 1abe 2860 00be 41a4 28bd 7a06 793d
00000060: 0281 6bbd 906e 3fbe 22c7 95bd 2054 a63e
00000070: c3fb cbbd ba89 a2bd f2fb cfbd 5d0e ccbd
00000080: b7b0 f6bc 5b51 04bf 59c0 0bbe 9fc9 f0bd
00000090: 2dd1 02bd 7fa6 90be c87e 2c3d 6ac0 2ebe
000000a0: de2e a6be b206 9a3e 0c46 f6bd ab14 41be
000000b0: 1ffd 1cbe 1823 11bd debb dbbd 67b4 3bbe
000000c0: 8575 5d3e 3245 1a3d 1aa8 12be 4bd3 a03d
000000d0: ed3b c13e 3708 453f a693 f2bd 5af5 cbbd
000000e0: b721 b0bc 83d2 efbd 4313 e73d 399b 23be
000000f0: a0b0 30be dc9c bbbd 4c0b a83e 7114 c53d
00000100: c86d 0abe 92ef 6cbe 79d8 55bd 3a2f a8be
00000110: 2d60 84bd c3da 84bd 5699 5c3c 6850 d0bd
00000120: aeff 91bd 8c5e 55bf 15cc e2bd 8478 06be
00000130: 986c 67be a989 1cbe a6da babd d608 2abd
00000140: 57db 0bbf 5217 e4bd e9bb 8ebe 8616 34bd
00000150: f49c f6bd 2898 31be 5e2f 743c 9504 e0bd
00000160: 6426 04be 508a 523d ebb9 08bd e4af 23bd
00000170: 5519 00be defa 47be 7fed 10be 48a8 66be
00000180: 7abe 173f ddeb f3bd bd55 71be 3d1c 203d
00000190: 3cb1 d8bd bcc8 c1bd 2e10 2f3e f715 debe
000001a0: 32a1 88bd 0d9e 4abf bc22 2ebc 66a6 33be
000001b0: f1d4 00be e25e cf3d b4c6 e2bd 0169 67be
000001c0: 4da8 dabe db05 06bf 0f8a 40be 51a8 f2bd
000001d0: 384a 08be 1a78 99bd 9342 97bd 2b59 44be
000001e0: 67d1 25be 09b0 16be 5618 04be 8656 15be
000001f0: c6a9 16be 0a0e 0ebe 8bc6 fdbd 0f29 05be
00000200: 4ac7 e3bd 0c15 d7bd 708e 77be 2c28 1fbe
00000210: 2d87 ebbd 5c34 87be b483 a7bd e113 2cbe
00000220: c76c 1abe 4f37 f2bd 8542 36be 4f01 9abd
00000230: be5d acbd 853c 13bd 2565 56bd 1d8b 45be
00000240: 5194 57be bb76 873f 6ef9 f7be e086 8ebd
00000250: 6c71 f3bd 483a 10be

fc3.weight f4 [1, 150]
0.0003494086 -0.0090862615 -0.014185944 0.015200773 -0.010811849 -0.012544557 0.015875502 -0.019534541
0.0061211786 -0.015851337 0.006831373 -0.011061234 -0.0080062365 -0.013373302 -0.010458905 -0.021250969
0.0142467 0.007310452 0.021301387 -0.02708832 -0.028247528 0.01389999 -0.0062254583 -0.021143872
0.024440378 -0.010593609 -0.007740593 0.018073982 0.024201425 0.00227309 -0.010636114 0.017949682
0.020237656 -0.013809183 0.005616724 0.006207339 -0.026349936 -0.023789823 -0.0010866217 -0.012446321
-0.033803716 0.034307152 0.00050244265 0.0024850809 0.0062972056 0.0038102071 0.0034009134 0.00047035058
-0.011717902 0.01210624 0.012891948 -0.0347664 0.007405621 0.00972242 0.012423975 0.0028405725
-0.02139517 -0.0058826255 -0.010363799 -0.011526459 -0.02353327 0.015060794 -0.010335344 0.015748652
0.00037827322 -0.02290066 0.005518472 -0.011037442 -0.01468623 0.0027607766 0.014275795 -0.024489893
-0.0018265353 -0.015063457 0.018384926 0.00020855595 -0.021591231 0.0084176585 0.014886706 -0.0008173674
-0.013890143 -0.029407673 -0.022594329 -0.005371183 0.0118872505 -0.015192401 0.009365612 0.009646676
-0.000507848 -0.011886683 0.012088698 -0.0038545511 0.020179357 -0.039879095 -0.025817677 0.019978473
0.010669699 -0.008810071 -0.008527998 0.031190114 0.026175825 -0.02182918 0.018787803 -0.013089746
0.0068213637 -0.015567339 -0.011230472 -0.0017902907 0.009840513 -0.022838105 0.016304975 0.025962483
-0.02865629 -0.019419514 0.009356607 0.012741075 -0.0006712804 0.005581687 0.008144233 0.010020653
-0.018644542 -0.0042719305 -0.013307824 0.01199762 -0.025181405 0.011672906 -0.023068214 -0.024126587
-0.015692743 0.014314261 -0.018406024 -0.008917878 -0.0012445046 -0.040282346 0.0013128292 0.00088479416
0.003498923 0.028581366 -0.008462351 0.01704207 0.029031614 0.038443595 0.001412114 -0.0281463
-0.021420512 0.009633468 -0.012219393 0.0015839498 0.0053495313 0.004045784
00000000: d430 b739 8bde 14bc 296c 68bc aa0c 793c
00000010: 2e24 31bc b087 4dbc 570d 823c e706 a0bc
00000020: 2b94 c83b aada 81bc b6d9 df3b 2e3a 35bc
00000030: 972c 03bc b21b 5bbc d45b 2bbc 8316 aebc
00000040: fe6a 693c 848c ef3b 3f80 ae3c 53e8 ddbc
00000050: 5c67 e7bc c9bc 633c eefe cbbb ea35 adbc
00000060: 3037 c83c d190 2dbc cda4 fdbb e30f 943c
00000070: 1142 c63c 1ff8 143b 1843 2ebc 360b 933c
00000080: 71c9 a53c e93f 62bc 7f0c b83b ef66 cb3b
00000090: d2db d7bc e0e2 c2bc f96c 8eba a7eb 4bbc
000000a0: c475 0abd a885 0c3d 5bb6 033a bddc 223b
000000b0: ca58 ce3b abb4 793b dce1 5e3b 6399 f639
000000c0: 71fc 3fbc 4059 463c c038 533c 3667 0ebd
000000d0: daaa f23b c94a 1f3c ee8d 4b3c e628 3a3b
000000e0: ec44 afbc 0ac3 c0bb eccc 29bc 79d9 3cbc
000000f0: d8c8 c0bc 8cc1 763c 9355 29bc 5103 813c
00000100: f952 c639 2a9a bbbc 4cd4 b43b 63d6 34bc
00000110: 839e 70bc 25ee 343b 06e5 693c 079f c8bc
00000120: 5b68 efba b8cc 76bc fc9b 963c d0af 5a39
00000130: 18e0 b0bc 38ea 093c 5fe7 733c 9944 56ba
00000140: 7b93 63bc 5ce8 f0bc be17 b9bc c000 b0bb
00000150: bec2 423c 8ce9 78bc 3972 193c 170d 1e3c
00000160: 1a21 05ba 5dc0 42bc ad0f 463c a39c 7cbb
00000170: 2e4f a53c 4358 23bd 987f d3bc e5a9 a33c
00000180: f6cf 2e3c 1e58 10bc 04b9 0bbc 6982 ff3c
00000190: af6e d63c 1cd3 b2bc e1e8 993c 6076 56bc
000001a0: bf85 df3b 270e 7fbc 0300 38bc 30a8 eaba
000001b0: 1a3a 213c fa16 bbbc 0392 853c 46af d43c
000001c0: 99c0 eabc ac15 9fbc 744c 193c f1bf 503c
000001d0: ddf8 2fba 96e6 b63b 646f 053c aa2d 243c
000001e0: 70bc 98bc 8dfb 8bbb 0f09 5abc aa91 443c
000001f0: 3c49 cebc b73f 3f3c 8df9 bcbc 1fa5 c5bc
00000200: 118e 80bc 5d86 6a3c 3bc8 96bc 4b1c 12bc
00000210: a51e a3ba 1aff 24bd 3d13 ac3a 88f1 673a
00000220: 304e 653b 7823 ea3c aca5 0abc d09b 8b3c
00000230: b5d3 ed3c 0877 1d3d af16 b93a 1293 e6bc
00000240: 127a afbc b2d5 1d3c d933 48bc 899c cf3a
00000250: 1f4b af3b 7f92 843b
