agent1_checkpoint_actor.pth (torch_old, 142847 bytes, 6 tensors)

fc1.weight f4 [200, 24]
-0.05340367 -0.26145864 -0.024582379 -0.005756771 -0.19470485 0.1304574 0.034332763 -0.09920675
-0.03536225 -0.25841013 0.019755851 0.06420261 -0.17867137 0.017982434 0.034088034 0.08883807
-0.062641986 -0.20812197 -0.07547043 0.11924182 -0.014032768 -0.096330695 0.01559431 0.042543363
0.102657095 0.14222705 -0.018601714 0.13340317 -0.13232747 0.05920664 0.04465529 0.112882026
0.0467523 0.13659719 -0.030792193 0.18963113 0.0010481676 0.17823386 -0.03608563 0.13648325
0.02872814 0.32881308 0.048099276 0.116832584 -0.072795525 0.097394675 0.018063014 0.09642345
-0.081375934 0.044967808 -0.02380467 -0.15671879 0.0026454912 -0.08000169 -0.011270378 -0.15323707
-0.14604054 0.1222961 -0.007890907 -0.031568043 0.005495311 -0.032432307 -0.021925312 -0.121283226
-0.056077287 0.09067111 0.016333109 -0.060372256 -0.04390978 -0.119862854 0.1303119 -0.02553357
-0.06832848 0.132728 0.00635095 -0.04381327 -0.16747753 -0.07185663 6.8996023e-06 0.081951946
-0.1345361 0.1474454 0.0004895682 0.050003458 -0.102423124 -0.12506169 -0.02373014 -0.0010490295
-0.020045912 0.09173122 0.09020994 -0.023165764 -0.09333968 -0.24063519 0.020571237 -0.093473196
0.027489277 0.17255548 -0.10202031 -0.00403966 -0.0036818571 0.12307452 -0.020920577 0.09154832
0.08266879 0.26305032 0.033648554 0.12710012 0.041665364 -0.099497594 -0.03297433 0.09932594
-0.08659542 0.11076167 0.017473694 0.011611798 0.18573068 0.008598311 0.06960479 0.10783556
-0.03735874 -0.14177369 0.024748998 -0.033474762 0.053814396 -0.05452146 -0.0028721306 -0.12489557
0.0028821682 -0.116794676 -0.011893869 -0.11911264 0.022913065 0.17745651 -0.026608882 -0.0023268561
-0.050496027 -0.1452989 0.06783402 -0.01085403 -0.078430675 0.30154973 -0.03268983 -0.018802363
0.0457974 -0.13412327 0.08844003 -0.03522721 -0.021012299 -0.08395847 -0.024449548 -0.01080014
0.04808634 -0.10352908 0.046807673 0.007705759 0.11462077 0.14913028 -0.031037554 0.042521484
-0.02285885 -0.017846534 -0.04442077 0.032247506 0.25460336 0.20870623 0.016132256 -0.03435369
0.06298013 -0.13702548 0.07034741 0.072938494 -0.101147644 0.1199327 -0.037104134 0.12235812
-0.0739834 -0.106138125 0.013156524 0.029783387 -0.06903905 0.19652887 0.048479773 0.12725508
-0.031909775 -0.045258347 0.055160824 0.043744203 -0.047421597 0.108649254 -0.07005112 -0.06159171
0.14478216 0.21675749 -0.0031026432 0.07079065 -0.017799959 -0.08950077 0.0055957837 -0.024685485
0.0641021 0.2403372 -0.019283501 -0.09837686 -0.12931372 -0.22123596 0.030954374 -0.04449139
0.04443698 0.13223347 -0.002779291 0.00087732176 -0.15744519 -0.27268243 0.05566347 -0.07506968
0.07420643 0.025226245 -0.08113836 -0.003234524 -0.06488592 -0.18383318 -0.039524093 -0.023265611
0.1486387 0.07338285 0.05730867 -0.055963174 -0.05734764 -0.11389694 -0.058369543 -0.05466222
0.11380503 0.014479241 -0.010839007 -0.16318567 -0.052025083 -0.052670132 -0.07526159 -0.21935742
0.04232482 -0.22245374 -0.011842881 0.010953761 -0.016420618 -0.070716426 -0.0074230353 0.040213328
-0.012154641 -0.23030548 0.008466733 0.051292356 0.015112727 -0.0007684465 -0.11187686 -0.042241555
00000000: cfbd 5abd e8dd 85be fc60 c9bc 4ca3 bcbb
00000010: b560 47be a096 053e 83a0 0c3d e92c cbbd
00000020: 02d8 10bd 554e 84be 06d7 a13c a87c 833d
00000030: a1f5 36be e64f 933c e59f 0b3d bcf0 b53d
00000040: 714a 80bd ed1d 55be 3e90 9abd 0e35 f43d
00000050: b2e9 65bc 0749 c5bd 477f 7f3c f341 2e3d
00000060: e23d d23d f8a3 113e 9f62 98bc d79a 083e
00000070: da80 07be a982 723d 77e8 363d b12e e73d
00000080: 577f 3f3d 22e0 0b3e e93f fcbc aa2e 423e
00000090: ab62 893a f082 363e 87ce 13bd 44c2 0b3e
000000a0: 4757 eb3c 305a a83e bf03 453d ec45 ef3d
000000b0: d215 95bd dc76 c73d e3f8 933c a879 c53d
000000c0: 6da8 a6bd 2a30 383d 0302 c3bc e47a 20be
000000d0: fa5f 2d3b edd7 a3bd 64a7 38bc 2eea 1cbe
000000e0: a78b 15be 6176 fa3d dd48 01bc 7e4d 01bd
000000f0: 0312 b43b bdd7 04bd b69c b3bc 5763 f8bd
00000100: 4cb1 65bd c6b1 b93d 03cd 853c e648 77bd
00000110: beda 33bd a87a f5bd 7c70 053e c72b d1bc
00000120: cdef 8bbd d9e9 073e a11b d03b 8b75 33bd
00000130: 3b7f 2bbe 9229 93bd 2283 e736 6cd6 a73d
00000140: d5c3 09be edfb 163e 5e56 003a 6dd0 4c3d
00000150: 37c3 d1bd 2c10 00be b665 c2bc 977f 89ba
00000160: 5337 a4bc 94dd bb3d fdbf b83d 21c6 bdbc
00000170: e028 bfbd 1269 76be 0385 a83c e06e bfbd
00000180: 3131 e13c 62b2 303e 06f0 d0bd 205f 84bb
00000190: 504b 71bb 7e0e fc3d a161 abbc b07d bb3d
000001a0: 414e a93d 88ae 863e 11d3 093d 8926 023e
000001b0: 4da9 2a3d 65c5 cbbd 1710 07bd 666b cb3d
000001c0: f158 b1bd 04d7 e23d fe24 8f3c 693f 3e3c
000001d0: 2f30 3e3e eedf 0c3c f58c 8e3d e4d8 dc3d
000001e0: 7a05 19bd 1f2d 11be 69be ca3c d51c 09bd
000001f0: 7c6c 5c3d e551 5fbd 5b3a 3cbb 40c9 ffbd
00000200: c2e2 3c3b 0c32 efbd 81de 42bc 54f1 f3bd
00000210: 2eb4 bb3c 29b7 353e dffa d9bc 2b7e 18bb
00000220: ecd4 4ebd 3cc9 14be 90ec 8a3d 1ad5 31bc
00000230: 43a0 a0bd ba64 9a3e c5e5 05bd 6a07 9abc
00000240: 0e96 3b3d 9c57 09be 0c20 b53d 684a 10bd
00000250: fc21 acbc 6bf2 abbd 6b4a c8bc 12f3 30bc
00000260: 2ff6 443d 0e07 d4bd 67b9 3f3d 9780 fc3b
00000270: 4bbe ea3d 9cb5 183e 7842 febc 022b 2e3d
00000280: 7c42 bbbc e532 92bc 8ef2 35bd f615 043d
00000290: 5f5b 823e 16b7 553e cb27 843c 74b6 0cbd
000002a0: bafb 803d 6850 0cbe 4e12 903d c760 953d
000002b0: 7f26 cfbd 479f f53d 81fa 17bd e596 fa3d
000002c0: 9c84 97bd f25e d9bd 768e 573c 4afc f33c
000002d0: 5864 8dbd dd3e 493e ba92 463d 284f 023e
000002e0: d3b3 02bd d160 39bd 51f0 613d 1f2d 333d
000002f0: 263d 42bd 8083 de3d f676 8fbd 9747 7cbd
00000300: c641 143e adf5 5d3e b755 4bbb b0fa 903d
00000310: 38d1 91bc 2e4c b7bd d65c b73b 3739 cabc
00000320: f647 833d f41a 763e 6ff8 9dbc cf79 c9bd
00000330: d16a 04be ae8b 62be 0794 fd3c 9b3c 36bd
00000340: 8d03 363d 3668 073e c424 36bb 11fc 653a
00000350: 5039 21be 089d 8bbe 61ff 633d 22be 99bd
00000360: 8af9 973d 45a7 ce3c de2b a6bd 4ffa 53bb
00000370: e9e2 84bd c43e 3cbe 04e4 21bd 8697 bebc
00000380: be34 183e bf49 963d 7fbc 6a3d a439 65bd
00000390: 5ce5 6abd cd42 e9bd e714 6fbd 7ee5 5fbd
000003a0: 9d12 e93d 573a 6d3c 1796 31bc 251a 27be
000003b0: 4118 55bd a3bc 57bd c022 9abd 3b9f 60be
000003c0: ca5c 2d3d eaca 63be a508 42bc 6777 333c
000003d0: 8884 86bc c6d3 90bd ef3c f3bb bbb6 243d
000003e0: 4224 47bc 33d5 6bbe 0db8 0a3c ef17 523d
000003f0: 5f9b 773c 9271 49ba b21f e5bd 7b05 2dbd

fc1.bias f4 [200]
0.23990734 -0.005780988 0.1970162 0.00506736 -0.11613659 -0.10261382 -0.09414023 -0.14949024
0.17473832 -0.25093335 -0.077355966 0.056623973 0.24159966 -0.007839468 0.18863784 0.07857027
-0.0867398 0.16585714 0.05464559 -0.06323426 -0.040173896 0.24497147 0.23516247 -0.21905665
0.025005097 0.17391935 0.14115122 0.08395306 -0.13134986 -0.12478677 -0.08760997 0.06933453
0.02247574 -0.18159805 -0.014585859 0.17172918 -0.15954041 -0.16475618 0.14505912 0.20233667
-0.17801933 -0.27378532 -0.09293055 0.25912437 -0.08784486 0.054565016 0.17582372 -0.022414451
-0.05581269 -0.089228936 -0.009277178 0.22682181 0.11758185 0.26586282 -0.0031018236 -0.023512943
-0.11013323 0.09366044 0.050075542 -0.13637228 -0.036128428 0.077092215 0.21064232 0.040361583
-0.2392395 -0.07558469 -0.11943559 0.08035572 0.2360315 0.01151604 0.05129092 0.22107124
0.13542652 0.14917088 0.15046427 0.058315404 0.12553331 -0.08699536 -0.15291482 0.08583935
0.12240084 -0.15480335 -0.16705754 -0.14009653 0.08654179 0.075173944 -0.07065107 0.07090862
-0.0062697385 0.16236365 -0.19608475 -0.1903148 -0.0967682 0.21732488 -0.10004745 0.13198698
0.056046717 -0.07476608 -0.049242217 -0.054381523 0.08358426 -0.015622831 0.11756012 0.026765035
-0.15107323 -0.11273437 -0.17728782 0.15506282 0.16699715 0.07812286 -0.1660552 -0.19205377
-0.03023242 -0.2060912 -0.18699881 -0.23032491 -0.11469868 -0.25130832 0.08757891 0.07668853
0.15806387 -0.23462681 0.18503812 0.028263936 0.04229834 -0.04219191 0.0928388 -0.17847458
0.1113263 0.17403565 0.14758871 -0.19241107 0.017670136 -0.16902582 0.1477874 0.066013314
0.06411808 -0.11285726 -0.13133655 -0.0034135848 -0.15192245 -0.12711167 0.21370156 0.09601102
0.0030274761 0.23521759 0.13266845 -0.054090276 -0.03930174 -0.14921282 0.16878451 -7.788565e-06
-0.061771054 0.28148797 -0.08577003 -0.16939114 -0.08188385 -0.10437222 0.26217398 -0.15496624
-0.09133759 0.10090056 -0.17438628 -0.11135922 0.07272059 -0.037572395 -0.07403221 -2.9666735e-06
-0.018382663 0.071354225 0.07987053 -0.21522832 0.22240655 -0.18304329 0.033778027 -0.085485555
-0.10014538 0.19923075 -0.2213623 0.01690256 0.13312289 0.12501393 -0.1303635 0.09485014
0.26950088 -0.23969097 0.06316717 -0.09932609 0.04124688 -0.13653317 0.11516187 0.02382207
0.15667512 0.047955047 0.015831623 -0.063529715 -0.1918691 -0.032042272 0.053799987 -0.11446455
00000000: 45aa 753e 716e bdbb 9dbe 493e 190c a63b
00000010: 05d9 edbd 3227 d2bd 98cc c0bd f813 19be
00000020: 9aee 323e 567a 80be ce6c 9ebd 8aee 673d
00000030: e765 773e 1d71 00bc 472a 413e 73e9 a03d
00000040: a3a4 b1bd 74d6 293e 0ed4 5f3d f780 81bd
00000050: 628d 24bd cdd9 7a3e 6ece 703e 6350 60be
00000060: 7dd7 cc3c ea17 323e f289 103e 95ef ab3d
00000070: 9480 06be 3590 ffbd db6c b3bd 43ff 8d3d
00000080: 0b1f b83c d7f4 39be 87f9 6ebc c6d9 2f3e
00000090: 905e 23be d8b5 28be 618a 143e 5831 4f3e
000000a0: b34a 36be 972d 8cbe 5f52 bebd f3ab 843e
000000b0: 02e8 b3bd 917f 5f3d 220b 343e 839e b7bc
000000c0: d99b 64bd a9bd b6bd 4eff 17bc fa43 683e
000000d0: c1ce f03d 2c1f 883e f747 4bbb 379e c0bc
000000e0: 888d e1bd 0bd1 bf3d 031c 4d3d 2da5 0bbe
000000f0: 67fb 13bd 86e2 9d3d 9fb2 573e 3052 253d
00000100: 33fb 74be 25cc 9abd a69a f4bd 8a91 a43d
00000110: 3eb2 713e c6ad 3c3c 6d16 523d 8060 623e
00000120: 40ad 0a3e 40c0 183e 4e13 1a3e 22dc 6e3d
00000130: ce8b 003e a02a b2bd b495 1cbe 8bcc af3d
00000140: 4bad fa3d c584 1ebe 2211 2bbe 7775 0fbe
00000150: d23c b13d ccf4 993d 82b1 90bd 8a38 913d
00000160: 6172 cdbb a842 263e 71ca 48be e2e1 42be
00000170: 682e c6bd 6a8a 5e3e ade5 ccbd 9827 073e
00000180: 3e91 653d f51e 99bd 35b2 49bd 29bf 5ebd
00000190: 392e ab3d e7f6 7fbc 5cc3 f03d 5942 db3c
000001a0: f1b2 1abe 47e1 e6bd f08a 35be cac8 1e3e
000001b0: 4d01 2b3e e1fe 9f3d 600a 2abe bea9 44be
000001c0: fba9 f7bc 9209 53be 9e7c 3fbe 4bda 6bbe
000001d0: 24e7 eabd 7cab 80be 925c b33d e00e 9d3d
000001e0: 7fdb 213e 0342 70be a27a 3d3e c589 e73c
000001f0: 0641 2d3d 6dd1 2cbd 4522 be3d 0ac2 36be
00000200: 0bff e33d 6736 323e 7f21 173e 6807 45be
00000210: f6c0 903c 1b15 2dbe 9555 173e fd31 873d
00000220: 5750 833d b521 e7bd 177d 06be 73b6 5fbb
00000230: 8f91 1bbe 9029 02be 95d4 5a3e 6da1 c43d
00000240: 9f68 463b e1dc 703e 3dda 073e c48d 5dbd
00000250: dcfa 20bd 3fcb 18be d9d5 2c3e a2ab 02b7
00000260: a503 7dbd 311f 903e 33a8 afbd df74 2dbe
00000270: b8b2 a7bd 1ac1 d5bd ab3b 863e 78af 1ebe
00000280: 340f bbbd f4a4 ce3d 5192 32be 4e10 e4bd
00000290: 88ee 943d 83e5 19bd 339e 97bd 1017 47b6
000002a0: 3d97 96bc 2a22 923d 2993 a33d d064 5cbe
000002b0: 8bbe 633e b36f 3bbe d45a 0a3d 0d13 afbd
000002c0: 0519 cdbd 2503 4c3e ccac 62be 3d77 8a3c
000002d0: 5e51 083e a703 003e 027e 05be ca40 c23d
000002e0: 05fc 893e 8d71 75be ca5d 813d 7a6b cbbd
000002f0: 7df2 283d 5acf 0bbe fdd9 eb3d 8026 c33c
00000300: 716f 203e 836c 443d 52b1 813c de1b 82bd
00000310: 5579 44be c23e 03bd 605d 5c3d 646c eabd

fc2.weight f4 [150, 200]
0.1938506 0.0022100375 0.06895488 0.16385071 0.12401367 -0.08092736 -0.13880548 -0.02026806
0.013240193 -0.042600863 0.042032074 -0.05670957 0.049690127 -0.104070984 0.13816029 0.015425295
0.035065968 0.05701801 0.07365101 -0.03528921 0.018604869 -0.08333504 -0.14692926 0.10417517
0.03614125 0.09420171 0.012201138 0.0904584 -0.13061571 -0.07438458 0.03034489 -0.056094978
0.019405274 -0.13481224 0.029826662 -0.010299051 0.105885305 -0.072238125 -0.038328975 0.031808734
-0.081134066 0.07024317 0.10092638 0.073234074 -0.04665275 -0.05143142 0.041934304 0.007912818
-0.020363728 -0.044006724 0.020183507 0.076516606 -0.11311209 0.026431225 0.034746364 -0.0597405
-0.09794104 -0.05340985 0.044646338 0.05546188 0.03488615 -0.019220026 -0.06168215 -0.09995247
0.046406996 -0.04616661 0.06689333 0.13487448 -0.08751916 0.0016310113 -0.0147053925 -0.03011322
0.0013846423 0.004918648 0.04302619 -0.030943302 0.041628994 0.039941527 -0.042782024 0.09261254
-0.13968 -0.061102297 -0.001962838 0.034884762 0.01654965 -0.00529925 0.14561829 0.0003762831
-0.11263421 -0.077201724 -0.10304477 0.054463267 -0.026834749 0.2778036 -0.03279639 0.021513596
-0.06686921 0.06828002 0.12629084 0.12745443 0.028165063 0.123622775 -0.04731777 0.06453601
0.0150691215 -0.1202155 0.040800653 -0.079053745 -0.15540825 -0.089024864 -0.08919945 0.13689494
-0.009621714 0.07589045 0.06013166 0.005730971 0.11902466 0.0073364195 -0.0042605717 -0.047623627
-0.05264794 -0.11130353 0.023941724 -0.014916712 0.06168481 -0.010431909 -0.044694874 -0.044907745
-0.032905795 -0.11357362 -0.16245139 -0.09070821 0.09913967 0.036022693 -0.020331742 0.030745871
-0.026487365 0.22078799 0.042972475 -0.0020731958 0.09654753 0.047343712 0.13650902 0.06591047
0.05520534 0.118887894 -0.051553726 0.039160192 -0.038774848 0.05739484 0.0574171 0.017200425
-0.0052796104 -0.09142055 -0.029065447 -0.07693914 0.06296084 0.09670438 -0.037924018 0.08215542
0.043046396 -0.006808955 -0.01044636 -0.081874825 -0.02424421 0.08450946 0.015975047 -0.061060384
0.02759834 0.006441684 0.07313435 -0.0007402152 0.10722441 0.04292202 -0.02596811 0.16260561
0.07110936 -0.021145253 -0.06765234 -0.10978247 0.035932224 -0.033174187 -0.23039943 -0.037727334
0.19682844 0.009956493 -0.049857207 -0.0064651766 0.055232823 0.13164563 -0.094452396 0.028895639
0.012808589 0.030670121 0.0189711 0.09851874 0.027733907 0.13580312 -0.012620442 -0.12254842
0.10507081 0.046010762 0.040157866 0.06608089 0.10547618 -0.02766283 -0.08667218 0.1284515
0.11787604 0.04416308 0.03765384 -0.13061781 0.08275178 -0.045591496 0.12432792 0.14258586
0.13674213 0.039921865 0.023222597 0.027398903 0.0044277683 0.008189095 -0.09926661 0.13588427
-0.06939846 0.007578767 -0.030310368 0.022991937 0.0029218546 0.047766622 0.05299378 -0.038327597
0.01946906 -0.12327702 -0.05219193 0.055358946 0.13113123 -0.020667706 0.019700892 -0.027275868
0.036319967 0.046076916 0.12286479 0.1013971 -0.11023035 0.016636841 0.033199985 -0.037882157
0.049784888 -0.059281565 0.020977437 0.058289036 -0.05496183 0.018956332 -0.049446136 0.034831002
00000000: c680 463e 47d6 103b 3738 8d3d 7bc8 273e
00000010: e1fa fd3d 3ebd a5bd 0623 0ebe 3409 a6bc
00000020: 65ed 583c 3e7e 2ebd d329 2c3d 4b48 68bd
00000030: e087 4b3d 2b23 d5bd e479 0d3e 60ba 7c3c
00000040: 55a1 0f3d b88b 693d 57d6 963d 6b8b 10bd
00000050: 3d69 983c 90ab aabd a074 16be cb59 d53d
00000060: d908 143d d3ec c03d 48e7 473c 4142 b93d
00000070: 20c0 05be f156 98bd d995 f83c d9c3 65bd
00000080: cff7 9e3c 380c 0abe 0b57 f43c 5abd 28bc
00000090: 65da d83d 95f1 93bd d8fe 1cbd e049 023d
000000a0: 9e29 a6bd a7db 8f3d 7db2 ce3d bffb 953d
000000b0: f416 3fbd c1a9 52bd 4ec3 2b3d c4a4 013c
000000c0: d5d1 a6bc 6540 34bd e257 a53c bdb4 9c3d
000000d0: 50a7 e7bd 4c86 d83c 3452 0e3d 74b2 74bd
000000e0: 5095 c8bd 49c4 5abd 14df 363d ff2b 633d
000000f0: c8e4 0e3d 5173 9dbc 6ca6 7cbd e1b3 ccbd
00000100: 4315 3e3d 3319 3dbd 5fff 883d 891c 0a3e
00000110: 3f3d b3bd a8c7 d53a e3ee 70bc 00b0 f6bc
00000120: e37c b53a 9c2c a13b 3b3c 303d cf7c fdbc
00000130: 2a83 2a3d ba99 233d 343c 2fbd a5ab bd3d
00000140: 4608 0fbe 6746 7abd f5a2 00bb 53e3 0e3d
00000150: 2293 873c 55a5 adbb f61c 153e dd47 c539
00000160: c4ac e6bd f01b 9ebd 2309 d3bd e014 5f3d
00000170: 8cd4 dbbc 463c 8e3e 8255 06bd 483d b03c
00000180: b9f2 88bd 65d6 8b3d 6352 013e 6a83 023e
00000190: 6bba e63c f02d fd3d 47d0 41bd 752b 843d
000001a0: 7ae4 763c 8b33 f6bd 961e 273d eee6 a1bd
000001b0: 5723 1fbe ab52 b6bd 34ae b6bd 302e 0c3e
000001c0: 65a4 1dbc 746c 9b3d 9e4c 763d dfca bb3b
000001d0: 33c3 f33d 5966 f03b 449c 8bbb fe10 43bd
000001e0: 5ea5 57bd 1bf3 e3bd 6f21 c43c 3a65 74bc
000001f0: 36a9 7c3d 99ea 2abc f911 37bd 2ff1 37bd
00000200: 3ac8 06bd 4999 e8bd a859 26be 3ac5 b9bd
00000210: bd09 cb3d 888c 133d c18e a6bc c4de fb3c
00000220: 08fc d8bc 3f16 623e e803 303d 74de 07bb
00000230: b6ba c53d 7beb 413d 05c9 0b3e 12fc 863d
00000240: ff1e 623d 7f7b f33d 002a 53bd 7066 203d
00000250: 60d2 1ebd da16 6b3d 312e 6b3d e8e7 8c3c
00000260: 9500 adbb b33a bbbd a91a eebc 4592 9dbd
00000270: 9df1 803d f20c c63d 3756 1bbd 1a41 a83d
00000280: 6b51 303d a81d dfbb 3627 2bbc fdad a7bd
00000290: cb9b c6bc 4c13 ad3d 1ade 823c 741a 7abd
000002a0: ea15 e23c c314 d33b 76c7 953d 000b 42ba
000002b0: 7998 db3d 00cf 2f3d 13bb d4bc 1682 263e
000002c0: c9a1 913d cf38 adbc 4f8d 8abd a2d5 e0bd
000002d0: ab2d 133d a8e1 07bd d4ed 6bbe fa87 1abd
000002e0: 658d 493e 8f20 233c 1237 4cbd d5d9 d3bb
000002f0: d03b 623d 1dce 063e 4270 c1bd 8cb6 ec3c
00000300: 1edb 513c e83f fb3c 4869 9b3c 31c4 c93d
00000310: 3832 e33c f90f 0b3e f8c5 4ebc abfa fabd
00000320: 5d2f d73d c875 3c3d 937c 243d 6b55 873d
00000330: e503 d83d 299d e2bc 2f81 b1bd ca88 033e
00000340: fe68 f13d 59e4 343d ea3a 1a3d adc0 05be
00000350: c479 a93d 26be 3abd a39f fe3d 0702 123e
00000360: 2106 0c3e 1c85 233d 513d be3c aa73 e03c
00000370: d016 913b 8e2b 063c 4b4c cbbd 3f25 0b3e
00000380: c820 8ebd 4e57 f83b 734d f8bc 9659 bc3c
00000390: 967c 3f3b efa6 433d 0110 593d 66fd 1cbd
000003a0: 947d 9f3c aa78 fcbd 35c7 55bd 10c0 623d
000003b0: 4447 063e 524f a9bc c463 a13c a471 dfbc
000003c0: 3fc4 143d 26bb 3c3d 89a0 fb3d 48a9 cf3d
000003d0: 73c0 e1bd fc49 883c b5fc 073d 522a 1bbd
000003e0: 3deb 4b3d 3ad1 72bd e0d8 ab3c 7cc0 6e3d
000003f0: a81f 61bd 4f4a 9b3c 0888 4abd f4aa 0e3d

fc2.bias f4 [150]
-0.027489144 0.047551256 0.086776964 0.015567013 0.048430275 -0.008289671 0.02068745 0.04997515
-0.070972815 0.05056458 0.056613978 -0.05108509 0.06650228 0.032370184 -0.021298874 0.0074527026
0.052715007 -0.0012503422 0.0075422996 0.020896524 0.0063575907 -0.04576927 0.0066452716 0.06242342
0.06315959 0.05641363 0.05394206 -0.011681941 0.08288345 0.032297 -0.108858705 0.051998768
-0.07723844 -0.05420668 0.006726284 -0.03564524 0.01749222 -0.019402979 0.010709945 -0.062037956
0.062435266 0.058442254 -0.035841662 -0.047083024 0.013540703 0.03519978 0.08878156 -0.05309811
0.0014438905 0.05700571 -0.121735044 -0.06313136 -0.0075519155 0.007426935 0.03819275 0.002497225
0.07624 0.06510393 0.064015985 -0.05025641 0.012914816 0.02597792 -0.02452295 0.08419046
-0.031338647 0.063264355 0.03222979 0.0009632186 -0.051703505 0.06944911 -0.007322097 0.09688157
0.03931998 0.035767958 -0.09651552 0.012501627 -0.041597873 0.08193302 -0.023855912 -0.010998203
-0.029219218 -0.04028879 -0.04386294 -0.02547719 -0.0015995632 0.073019564 0.06086183 -0.0004974737
-0.074233994 -0.03358724 -0.0056565097 -0.0044836826 -0.012954636 0.03144291 0.03068516 0.028172852
-0.05817641 -0.038914617 -0.011409338 -0.02011478 0.09886983 -0.039070748 0.060852036 0.09698374
0.030891195 -0.049598385 -0.14582713 0.01481944 -0.04241304 0.021687651 0.013153735 -0.023280898
0.012688078 0.022117749 0.08062136 0.00803357 0.06712462 0.0063289814 0.022538511 0.026356377
-0.006691887 0.058773004 -0.03317093 0.048929505 -0.008254956 0.053092424 0.016559642 -0.06465942
-0.023007113 0.012490453 0.014415437 0.023930429 0.08294256 -0.031135332 0.0029627515 0.033084918
0.09691041 0.059157904 0.035038687 -0.00097095134 0.036251195 -0.044320855 0.023824932 -0.058530036
-0.043006252 0.049113214 0.042803623 0.010244559 0.040579967 0.013518354
00000000: ea30 e1bc 1bc5 423d 1fb8 b13d c90c 7f3c
00000010: d35e 463d 66d1 07bc ba78 a93c beb2 4c3d
00000020: 325a 91bd ce1c 4f3d 0fe4 673d 993e 51bd
00000030: 5932 883d 9996 043d fa7a aebc cd35 f43b
00000040: b1eb 573d 86e2 a3ba 6525 f73b 302f ab3c
00000050: 5653 d03b 8f78 3bbd 94c0 d93b b3af 7f3d
00000060: d159 813d fa11 673d 59f2 5c3d 9d65 3fbc
00000070: ccbe a93d dc49 043d 50f1 debd a9fc 543d
00000080: 302f 9ebd d307 5ebd 2968 dc3b be00 12bd
00000090: d84b 8f3c fff2 9ebc c478 2f3c 831b 7ebd
000000a0: 1fbc 7f3d 2561 6f3d b5ce 12bd 21da 40bd
000000b0: d3d9 5d3c a52d 103d 1bd3 b53d 677d 59bd
000000c0: ed40 bd3a d27e 693d 3950 f9bd 044b 81bd
000000d0: 0f76 f7bb a55d f33b 0070 1c3d 7ca8 233b
000000e0: b823 9c3d 3655 853d d01a 833d aad9 4dbd
000000f0: aa98 533c a6cf d43c 5be4 c8bc 0c6c ac3d
00000100: f45c 00bd be90 813d 6203 043d 8280 7c3a
00000110: 0ec7 53bd 563b 8e3d 34ee efbb d869 c63d
00000120: fd0d 213d 6c81 123d eea9 c5bd a0d3 4c3c
00000130: 8862 2abd 80cc a73d 796d c3bc cf31 34bc
00000140: 245d efbc dc05 25bd a0a9 33bd 8ab5 d0bc
00000150: 6fa8 d1ba 488b 953d 414a 793d e568 02ba
00000160: fe07 98bd c692 09bd 3e5a b9bb dbeb 92bb
00000170: ae3f 54bc 48ca 003d 725f fb3c c1ca e63c
00000180: 634a 6ebd ef64 1fbd 3bee 3abc c0c7 a4bc
00000190: 447c ca3d a608 20bd fc3f 793d 699f c63d
000001a0: 880f fd3c ad27 4bbd b553 15be 3dcd 723c
000001b0: 4cb9 2dbd 4daa b13c c382 573c 95b7 bebc
000001c0: a8e1 4f3c 4830 b53c d01c a53d 3c9f 033c
000001d0: a278 893d 5863 cf3b afa2 b83c 54e9 d73c
000001e0: 9e47 dbbb f6bb 703d 3ede 07bd 4e6a 483d
000001f0: cc3f 07bc 7177 593d 16a8 873c 286c 84bd
00000200: 6a79 bcbc c2a4 4c3c ba2e 6c3c bf09 c43c
00000210: cadd a93d 860f ffbc b92a 423b 0d84 073d
00000220: f778 c63d 8f4f 723d ba84 0f3d 7187 7eba
00000230: 227c 143d c989 35bd 812c c33c 31bd 6fbd
00000240: 5327 30bd f02a 493d da52 2f3d cbd8 273c
00000250: 2e37 263d 167c 5d3c

fc3.weight f4 [2, 150]
0.057142098 0.06772403 -0.1237703 -0.19292551 0.058374308 0.0483018 0.09018546 -0.03172651
0.1624056 0.2287282 0.2896601 0.032130416 -0.17263816 -0.16516659 -0.008844304 0.053225353
0.037471574 0.04531205 -0.3346265 0.04550557 -0.08010331 -0.09169921 0.050583035 -0.045734588
-0.025222853 0.02652925 0.024955174 -0.0919287 -0.041925643 0.04754933 0.12695308 0.08670301
0.25183842 -0.06671867 -0.09274075 0.09299102 0.33712766 -0.051551286 0.20597588 -0.07590989
0.018907871 0.14460681 -0.014407737 -0.015637478 -0.15668775 0.27399644 -0.07539277 -0.054264445
-0.040734652 0.073655315 0.10516253 -0.040491957 0.022065049 -0.064229235 -0.13836414 -0.016428994
-0.05056719 -0.07806277 0.17331792 -0.037410274 0.027297635 -0.04014166 0.03500794 -0.105745986
-0.27511194 -0.044069767 0.06844027 0.094831586 -0.08511993 0.030839339 -0.18674503 0.063292086
-0.03298255 0.05858931 -0.042298432 -0.05274444 0.18189134 -0.15005563 -0.11045254 -0.08366217
-0.044666234 -0.17156215 -0.4513575 0.06237807 -0.02361365 0.013678951 0.067681774 0.08853502
-0.08547892 -0.002094773 -0.007345746 0.033861764 0.017534303 0.022152754 0.028304925 0.014175732
-0.02645529 0.019705525 -0.05400346 -0.037296608 0.079431795 0.09777836 0.02688231 0.010043745
0.23243944 0.0180563 0.20690547 -0.049747083 0.012514572 -0.049136374 0.15601942 -0.00045381437
0.06802217 0.24656616 0.004148703 0.24460343 -0.19068842 -0.14606482 0.014618258 -0.03649316
-0.0416479 0.039477386 -0.14694238 0.104475215 0.047372155 -0.05115707 -0.026245177 0.0051090526
-0.12602794 0.051597286 -0.01742006 -0.108773105 0.056841675 0.021578005 0.08629571 -0.029934956
-0.27317223 0.06880773 -0.027883187 -0.013739121 -0.048412554 -0.04318914 0.0009484009 0.10007995
0.025897821 0.00055973977 0.033945866 -0.04394474 0.043845776 -0.2209017 0.061192427 0.022724438
0.06243692 0.024500852 -0.06834564 0.27415025 0.06564581 -0.33970532 0.23886524 0.17285715
0.013328853 0.057811838 -0.00053119793 -0.049132004 0.33088666 -0.06948059 0.08332808 0.011809391
-0.035793163 0.019221498 -0.14358537 0.010262177 0.018509148 0.08653122 -0.09283268 -0.06492342
-0.050055403 -0.035937246 -0.058342498 0.0033676114 0.17275317 -0.008720475 -0.097906455 0.27641788
0.11216209 -0.069682084 -0.01369292 0.0100485375 0.08373345 -0.032445002 -0.1792553 0.09415326
-0.108957216 -0.07055807 -0.055804193 -0.25284597 0.058376957 0.09371959 0.05921406 -0.11204429
-0.10190033 0.10750112 -0.008904549 0.045533873 -0.065956905 0.31484962 -0.022686437 -0.35949582
0.23620279 0.010249265 -0.13402973 0.054770228 0.031220209 -0.09939744 0.16020285 0.20580879
0.20556158 0.33190617 0.045796964 -0.18675475 0.057216324 -0.19421764 0.01860797 -0.10652525
0.095414944 0.0020019654 0.1904287 -0.07140062 0.054981876 -0.07240062 0.28000537 0.039991315
0.15412733 -0.056967635 -0.09143803 -0.0482031 0.15920857 -0.023899488 0.46104726 -0.2772461
0.15444767 -0.18116519 -0.05111165 -0.055253476 -0.10106856 -0.16634849 -0.0009353936 -0.05705873
-0.1171569 -0.0855025 0.08286287 0.3219069 -0.015970347 -0.24775906 0.041479096 -0.07264356
00000000: d50d 6a3d e5b2 8a3d 487b fdbd 448e 45be
00000010: e619 6f3d 1cd8 453d 28b3 b83d a8f3 01bd
00000020: a74d 263e ba37 6a3e 544e 943e 2f9b 033d
00000030: 0fc8 30be 6e21 29be b3e7 10bc d402 5a3d
00000040: cb7b 193d 2199 393d 2a54 abbe 0c64 3a3d
00000050: 340d a4bd cccc bbbd 2830 4f3d 3154 3bbd
00000060: 28a0 cebc df53 d93c cb6e cc3c 1d45 bcbd
00000070: 39ba 2bbd 16c3 423d fdff 013e 5991 b13d
00000080: f7f0 803e cca3 88bd ddee bdbd 1372 be3d
00000090: ff9b ac3e 7127 53bd 57eb 523e a576 9bbd
000000a0: aee4 9a3c cf13 143e 6e0e 6cbc 2b1a 80bc
000000b0: c172 20be 4349 8c3e 8667 9abd 6544 5ebd
000000c0: 61d9 26bd 99d8 963d 745f d73d e5da 25bd
000000d0: c3c1 b43c 9e8a 83bd 54af 0dbe 1996 86bc
000000e0: 8b1f 4fbd 60df 9fbd 417a 313e 843b 19bd
000000f0: 4a9f df3c 956b 24bd 7c64 0f3d 5a91 d8bd
00000100: 79db 8cbe 8082 34bd 6a2a 8c3d 1037 c23d
00000110: 5c53 aebd c8a2 fc3c 173a 3fbe 489f 813d
00000120: b618 07bd 58fb 6f3d 1f41 2dbd 8e0a 58bd
00000130: b941 3a3e 2fa8 19be f134 e2bd 1257 abbd
00000140: f1f3 36bd fdad 2fbe 5518 e7be 2680 7f3d
00000150: 6a71 c1bc ae1d 603c be9c 8a3d d951 b53d
00000160: 920f afbd 7648 09bb 95b4 f0bb a2b2 0a3d
00000170: 19a4 8f3c b179 b53c bbdf e73c 5441 683c
00000180: c4b8 d8bc 7b6d a13c bb32 5dbd 54c4 18bd
00000190: 23ad a23d 0540 c83d 4a38 dc3c 858e 243c
000001a0: 9b04 6e3e ceea 933c 07df 533e 99c3 4bbd
000001b0: eb09 4d3c 3943 49bd 8ec3 1f3e efed edb9
000001c0: 354f 8b3d d77b 7c3e d8f1 873b 5279 7a3e
000001d0: d343 43be 0492 15be 6b81 6f3c da79 15bd
000001e0: fd96 2abd 0ab3 213d 1078 16be 1af7 d53d
000001f0: 4e09 423d 138a 51bd 2000 d7bc d769 a73b
00000200: 780d 01be ad57 533d 83b4 8ebc 6fc4 debd
00000210: d1d2 683d 5bc4 b03c cebb b03d 273a f5bc
00000220: 3bdd 8bbe 11eb 8c3d 486b e4bc 0d1a 61bc
00000230: 3e4c 46bd 18e7 30bd 1b9e 783a b8f6 cc3d
00000240: ab27 d43c 80bb 123a d20a 0b3d 66ff 33bd
00000250: a197 333d 0e34 62be e9a4 7a3d 9a28 ba3c
00000260: dbbd 7f3d 03b6 c83c cdf8 8bbd 6c5d 8c3e
00000270: 4f71 863d dbed adbe 1799 743e 7701 313e
00000280: 4361 5a3c 1bcc 6c3d 1740 0bba a43e 49bd
00000290: fa69 a93e d74b 8ebd eaa7 aa3d 2d7c 413c
000002a0: da9b 12bd 6776 9d3c 0b08 13be b122 283c
000002b0: 7fa0 973c 4837 b13d 0f1f bebd 92f6 84bd
000002c0: e506 4dbd ef32 13bd 8bf8 6ebd 25b3 5c3b
000002d0: 35e6 303e 53e0 0ebc 2e83 c8bd a586 8d3e
000002e0: 3db5 e53d 7bb5 8ebd 4558 60bc 9fa2 243c
000002f0: 717c ab3d 0de5 04bd b48e 37be 6dd3 c03d
00000300: f624 dfbd c080 90bd f092 64bd 0775 81be
00000310: ad1c 6f3d 0ef0 bf3d 718a 723d 7a77 e5bd
00000320: 1fb1 d0bd 8c29 dc3d 63e4 11bc ba81 3a3d
00000330: 6a14 87bd f833 a13e e8d8 b9bc d60f b8be
00000340: 25df 713e 88ec 273c 173f 09be bf56 603d
00000350: 86c1 ff3c e390 cbbd 370c 243e 8abf 523e
00000360: bc7e 523e 9bef a93e 9995 3b3d a33c 3fbe
00000370: aa5b 6a3d fde0 46be be6f 983c e929 dabd
00000380: e968 c33d 6833 033b beff 423e 7d3a 92bd
00000390: ad34 613d c746 94bd dd5c 8f3e efcd 233d
000003a0: 8ed3 1d3e e556 69bd dd43 bbbd 9d70 45bd
000003b0: 9207 233e dcc8 c3bc 630e ec3e 33f3 8dbe
000003c0: 8827 1e3e 5e83 39be 735a 51bd 7851 62bd
000003d0: 08fd cebd 4257 2abe 3435 75ba 6ab6 69bd
000003e0: f5ef efbd ef1b afbd 02b4 a93d fbd0 a43e
000003f0: 3fd4 82bc 8db4 7dbe fce5 293d 26c6 94bd

fc3.bias f4 [2]
-0.06859929 0.026111688
00000000: c97d 8cbd 2ee8 d53c
