agent1_checkpoint_critic.pth (torch_old, 164645 bytes, 5 tensors)

fcs1.weight f4 [200, 52]
000000 82 be 25 3c d8 85 34 3f b5 43 81 3d 44 99 51 be
       0.010116221 0.7051673 0.06311742 -0.20468622
000010 66 2a 86 3c 7a aa 3f be 3f 50 34 bd 60 35 52 be
       0.016377639 -0.18717375 -0.04402184 -0.20528173
000020 ee 9b 28 3e a9 e2 3e 3f 36 e9 af bd 18 fc a8 be
       0.16465732 0.74564606 -0.08589403 -0.33004832
000030 90 dc 58 be 7c 59 92 be 58 c2 ac bd 4e 06 a6 be
       -0.21177888 -0.28583896 -0.08435506 -0.32426685
000040 7d 4f c0 3d 4f d9 0e 3f 89 b7 c5 3d 33 28 63 be
       0.09390161 0.55800337 0.09654147 -0.22183304
000050 a5 54 a1 be 09 32 e4 3d 89 08 af 3d 91 41 8a be
       -0.3150989 0.11142356 0.0854655 -0.27003148
000060 cc 52 8c 3e fb 39 92 be f4 74 9d bd 9d f6 70 be
       0.2740692 -0.2855986 -0.07688323 -0.23531576
000070 28 23 78 3d bd 6e 92 be 01 46 a2 bd 83 70 8f be
       0.060580403 -0.28600112 -0.079235084 -0.28015527
000080 b9 00 a7 3e b7 c4 86 be b4 31 9b 3a 3a 71 3c bd
       0.3261774 -0.26321957 0.0011840374 -0.04600642
000090 7e e0 05 3e 1f 38 55 be 73 ab 23 bc b3 dc b2 bd
       0.13073918 -0.2082219 -0.009989607 -0.08733501
0000a0 86 d9 5f 3e 57 13 8b be ed ad 91 3c ac 5c 61 3e
       0.21860322 -0.27163193 0.01778313 0.22008008
0000b0 6b 60 bb 3e ee b1 14 3e 09 45 82 3d db f1 69 3e
       0.36597 0.14521 0.06360824 0.22846167
0000c0 0b 79 07 3f b8 79 28 3f 28 f2 8e bf 72 d3 7d be
       0.5291907 0.6581073 -1.116765 -0.24787691
0000d0 fe b9 48 3e a2 2e 72 be f2 75 06 be c4 d5 0f bf
       0.196022 -0.23650602 -0.1313093 -0.56185555
0000e0 92 9a 35 be 40 89 c0 bd 4e 74 7b bd 92 3d 1b bf
       -0.17734745 -0.09401178 -0.061390214 -0.60640824
0000f0 f8 3c 4f 3e 74 47 0b bf 1c 19 c2 3c 5a 27 41 3e
       0.20238101 -0.54405904 0.023693614 0.18862668
000100 ab 4f 3c 3d e5 b1 4d 3e f2 5c 03 3e 74 9e 5a 3e
       0.045974415 0.20087393 0.12828425 0.21349508
000110 95 c4 8c 3e e5 a3 bc be 89 1f 70 3c d8 6d f5 3e
       0.2749373 -0.36843792 0.014655956 0.47935367
000120 b4 da 12 3e f6 ad 99 3e c8 3e 0f 3d 1a 80 f7 3e
       0.14341241 0.30015534 0.034971982 0.4833992
000130 99 f3 80 3e 5f 02 08 3f f1 f3 89 3d ca 1c 07 3e
       0.2518585 0.5312862 0.06735981 0.13194576
000140 38 52 45 3e 5c e6 34 3c df 5b 64 3d 98 f5 10 3e
       0.19269645 0.01104125 0.055751678 0.14156187
000150 61 e1 cf 3d 71 6c a9 3e 5b 61 6c 3c b8 b4 5c be
       0.101504095 0.33090547 0.014427508 -0.21553314
000160 84 19 b5 3c 17 6b 63 3e b7 5c 0e bc 28 59 4d be
       0.022106893 0.2220882 -0.008689097 -0.20053542
000170 ad 4e 1c 3e 64 5f c3 3e 4c c1 c4 bd d6 98 ef 3a
       0.15264387 0.38158715 -0.09607181 0.0018279802
000180 c2 fd 71 be 43 7f b6 3e 4d 5f e1 bc eb 3e 03 bc
       -0.23631957 0.35643968 -0.027511263 -0.008010606
000190 82 2c e9 3e 2e 3d e6 be 53 ac 28 3e 27 39 2c 3f
       0.4554177 -0.4496855 0.16471986 0.6727471
0001a0 d0 3a 30 3d a8 b7 4a bd 55 64 ee 3c e8 08 11 3b
       0.043024838 -0.049491554 0.029100576 0.0022130553
0001b0 b3 dc ea bd ba 84 8c 3d cb 52 48 bd 3e 98 4b bd
       -0.11467876 0.06861253 -0.048907083 -0.049705736
0001c0 4c 8b 4b 3d dc e9 df 3d 9f f9 6f bd 29 7b 70 3c
       0.04969339 0.10933277 -0.058587667 0.014677801
0001d0 f5 a7 2a 3e b3 fc 87 3e b3 1e 46 3d 0f 79 a4 bd
       0.16665633 0.26559982 0.04836912 -0.080309026
0001e0 21 a8 9d 3c b5 f8 71 3e d4 60 61 3a cb 5f 87 bd
       0.01924521 0.2363003 0.00085974974 -0.06610068
0001f0 9b 1d 23 3f 44 bb db 3e c7 02 fc bb 4b 44 63 3b
       0.6371705 0.4291631 -0.007690761 0.0034678157
000200 4c ed 7f 3e 16 28 84 be 80 44 ee 3c f6 2f 86 3d
       0.24992865 -0.25811833 0.029085398 0.065521166
000210 47 ab 3d 3e 8c 4c c1 3d c9 ae 17 3c c3 6e b0 3c
       0.18522368 0.09438428 0.009257981 0.02153719
000220 0c d2 ec 3e 07 c5 d2 be 94 b6 a4 3a 99 b5 bf bc
       0.46254003 -0.41165945 0.001256662 -0.023402022
000230 91 3d 47 be a7 09 9d 3e 27 af c9 3c 51 26 c3 bd
       -0.1945708 0.30671427 0.024619652 -0.09528793
000240 db 66 28 3f 2a 3c 81 be 8b 8f 5d 3c b4 e0 71 3d
       0.65781945 -0.25241214 0.013522993 0.059052184
000250 ab 83 2f bf d0 e3 b7 3e 8e ee cd 3c d1 8a a0 bb
       -0.68560284 0.35915995 0.025138166 -0.0048993607
000260 a3 0c b5 be fb 97 b0 3d 55 e9 5e 3f cf 43 6c 3d
       -0.35361204 0.08622738 0.87074786 0.057681855
000270 80 ca 56 bd a5 ad 95 3d 6b 6a 23 3b 82 61 ce 3d
       -0.052439213 0.07308511 0.0024935256 0.10077192
000280 19 b1 b5 3d 1f 40 bb be ec 28 ca 3d b4 40 ac 3d
       0.08871669 -0.36572358 0.098710865 0.08410779
000290 a6 8d 05 bd bf e6 5c 3e c4 2c 95 3d d0 52 0b ba
       -0.03260579 0.21572398 0.07283929 -0.0005314769
0002a0 6a ca 8c 3d 90 85 e0 be fa 97 6f 3d 41 e6 3e 3c
       0.06874545 -0.438519 0.058494546 0.0116515765
0002b0 f9 83 f0 3c 21 80 90 3e 06 21 2d bd 2c c6 ea bc
       0.029359804 0.28222755 -0.04226782 -0.028658949
0002c0 c7 75 b0 3d 7d 2d 42 bf 91 d2 c5 bc 04 91 6d bd
       0.08616214 -0.7585066 -0.024148257 -0.057999626
0002d0 36 78 fc bd bd 04 41 3e 33 a1 95 3c 28 02 02 be
       -0.12327616 0.18849464 0.018265342 -0.12696135
0002e0 85 6b c6 bd 31 55 8f be 51 1c 60 3b 59 af f4 bd
       -0.096884765 -0.27994683 0.0034196565 -0.119475074
0002f0 50 19 34 bd 7c 57 29 3e aa ef 76 bc fb 40 81 be
       -0.043969452 0.16537279 -0.015071789 -0.2524489
000300 fb 03 3a be 16 45 f0 be 7c a5 10 bd 0d 4b 55 be
       -0.18165581 -0.46927708 -0.03531407 -0.20829411
000310 09 eb d7 3c 2f 73 84 3e 0b 09 f4 3b 75 57 28 be
       0.02635719 0.25869128 0.007447367 -0.16439612
000320 10 80 95 bc 21 0f 30 bf a3 a2 be 3d 77 3f 08 be
       -0.018249542 -0.68773085 0.09308364 -0.1330546
000330 0a 02 a1 be 6f 35 66 bf a3 d4 ec 3e 97 e6 d3 3e
       -0.31446868 -0.89925283 0.4625598 0.41386864
000340 ba 73 f5 3c 19 f2 cc 3e 24 6b 10 3c e7 23 20 3e
       0.02996241 0.40028456 0.008814607 0.15638696
000350 d6 67 33 be 28 65 2f 3d 50 bb a7 bc 4c df 61 3e
       -0.17520079 0.04282108 -0.02047506 0.22057837
000360 cb b3 33 3d 71 31 03 3f f8 7c 0d bc ab 88 e1 3d
       0.043872636 0.51247317 -0.008635752 0.110123955
000370 b9 fb ca 3c cd 90 f3 be 41 74 1d 3d c7 54 02 3e
       0.024778234 -0.47571412 0.038440946 0.12727652
000380 8c 83 ba bd db 80 13 3f 4d aa 35 3d ff 73 00 3e
       -0.09107122 0.5761849 0.044351865 0.12544249
000390 72 ea f2 3c 2f 16 20 c0 17 9c 28 bd 3c 8f a8 3d
       0.029652808 -2.501354 -0.041164484 0.08230445
0003a0 60 48 02 be 63 d3 e0 3f 1c 04 4f bc 38 b1 37 3d
       -0.12722921 1.756451 -0.012635257 0.044846743
0003b0 e7 db c8 3d 74 af 8c 3d e8 ff 66 3c 4c 0e 6e 3c
       0.09807568 0.068694025 0.014099099 0.014529776
0003c0 1e 71 05 be 8d 55 db 3f ce 0d 06 bc da 77 d2 3d
       -0.13031432 1.7135483 -0.008182002 0.10276766
0003d0 e0 7d 15 3d 8d bb d8 be 30 5e c2 3c 9f b2 6a 3d
       0.036496997 -0.4233059 0.023726553 0.057299253
0003e0 4c e1 50 be c0 fc dd 3f df 9c d7 bc bf 27 db 3e
       -0.20398444 1.7342758 -0.02631992 0.4280376
0003f0 6a 65 85 bc f3 6b 21 c0 29 9d 44 3c 2d db ce 3e
       -0.01628371 -2.5222137 0.0120003605 0.40401593

fcs1.bias f4 [200]
000000 af 43 1c bf 2d e4 84 be 29 ff 9e be 43 24 2a 3e
       -0.61040777 -0.25955334 -0.31054047 0.16615395
000010 1c 71 9f 3e f7 ae cf be 60 39 29 bf 93 6d 4a 3e
       0.31140983 -0.40563175 -0.6610317 0.19768362
000020 0d d5 a7 be bb c6 7d bd a5 71 b8 be 86 04 28 be
       -0.32779732 -0.061957102 -0.36024204 -0.16407976
000030 71 80 e4 bc d5 e2 14 bf ba cb 9b bd 3b 3e ad be
       -0.027893277 -0.5815862 -0.07607217 -0.3383654
000040 b1 7d 9a bf 52 ad ed be 24 bc 40 bf 12 5f 48 be
       -1.2069608 -0.46421295 -0.7528708 -0.19567516
000050 8a be 41 be 8a 2b 08 be be 08 9e be 7a 7a 04 3e
       -0.18920341 -0.13297859 -0.30866045 0.12937346
000060 59 b3 91 be 4c f8 58 be 82 b5 bb be 01 ee 02 be
       -0.28457144 -0.21188468 -0.36661917 -0.12786104
000070 cd 92 ba be e6 4a 1c bd e8 04 7d 3b bb 9f c7 be
       -0.36440125 -0.038157366 0.003860766 -0.38989052
000080 67 62 0a bf a9 6a 9e 3d 8c b9 58 bf 85 10 46 be
       -0.540564 0.077351876 -0.8465812 -0.19342239
000090 d8 34 96 be 6a 88 49 bf 91 ca 9c be d0 29 a3 be
       -0.29337192 -0.78723776 -0.30623296 -0.31867838
0000a0 70 2b bb be 26 17 16 be 89 24 ee 3e 98 0a 33 bf
       -0.36556578 -0.14657268 0.4651225 -0.6993804
0000b0 45 2a fa 3d e5 dc 1c bf 4c fe b7 be 17 5b ec bd
       0.122150935 -0.6127456 -0.359362 -0.115408115
0000c0 f2 05 ec be a3 bc dd be 2b e2 bc bd 2c a6 3e bf
       -0.46098286 -0.4330798 -0.092228256 -0.7447231
0000d0 97 7e de bd df 96 6b 3f 33 9e 7d be cf b4 1d bf
       -0.10863989 0.92027086 -0.2476738 -0.61604017
0000e0 d1 a3 4c bf 64 12 8c 3d de 60 3c 3e 54 b3 7b be
       -0.79937464 0.06839445 0.18396327 -0.24580127
0000f0 d5 bd 7f bd 7e 52 fd bd ef eb ac be c4 e9 5d be
       -0.062436897 -0.1236925 -0.33773753 -0.21671206
000100 8a ac a0 b9 6d 4c fe be 03 26 a9 be e6 bf 35 3c
       -0.0003064613 -0.49667683 -0.33036813 0.011093115
000110 71 b3 3a be 32 b5 d3 be 55 94 4b 3e 73 1a f7 3e
       -0.18232514 -0.4134918 0.19880803 0.48262367
000120 18 ce 26 be 6b 3c d7 bd 7a 2c 17 3e a7 f4 8e 3e
       -0.16289556 -0.10509571 0.1476306 0.2792103
000130 32 89 a3 be 74 d2 cb be b7 c9 d7 be 64 09 92 be
       -0.3194061 -0.39809 -0.42146084 -0.2852279
000140 5a bb d0 be fc f8 90 3e ae 77 ef bd f8 e1 1a bc
       -0.40767938 0.2831496 -0.11692749 -0.009453289
000150 1b 7c 0a be 92 de 52 bd 04 fe c6 bc 0d 1e 86 bd
       -0.13523905 -0.05148179 -0.024291046 -0.065487005
000160 88 b7 68 be ed 99 c6 bd ca f9 ed be cf 04 cf be
       -0.22726262 -0.09697328 -0.46479636 -0.40433356
000170 76 6f 30 3e be 8b 9a bd 97 35 6d be 97 d9 bc be
       0.17230019 -0.07546185 -0.23164974 -0.36884758
000180 97 c1 13 bf 56 df 03 bd 36 54 19 bf 4f 59 bb be
       -0.5771727 -0.03219541 -0.5989412 -0.36591575
000190 e1 96 92 be 11 99 22 bf b4 20 10 bf 2c a3 6d 3e
       -0.28630736 -0.6351481 -0.562999 0.23206776
0001a0 01 b6 57 3e 17 82 d6 be ec de 29 bf 19 07 66 bf
       0.21065523 -0.41896126 -0.66355777 -0.8985458
0001b0 b9 34 88 be 2d 38 e6 be 48 26 ef be d1 72 ef bd
       -0.26602724 -0.44964734 -0.46708894 -0.11691821
0001c0 d1 19 2a bd a0 34 87 bf 45 21 00 bf 94 9d 9b be
       -0.041528527 -1.0562935 -0.50050765 -0.3039366
0001d0 5c d1 65 bf e8 4b 8a be 7c 9b 3d be 2d fb bc be
       -0.8977258 -0.27011037 -0.18516344 -0.36910382
0001e0 85 2a 43 be 36 37 1b bf 3f 56 22 3a c2 13 a2 be
       -0.19059189 -0.6063112 0.0006192661 -0.316557
0001f0 a5 85 6c be 6a 62 34 bf 62 f5 5d 3f ba 34 09 bf
       -0.23097856 -0.7046267 0.8670255 -0.5359608
000200 2d 39 cd be 0b 2a 8f 3c 5d a0 ad be bb 1c 51 be
       -0.40082684 0.017476102 -0.3391141 -0.20421116
000210 3d 5a 6f be d4 66 7e 3d 5c 43 98 be 23 64 0a 3f
       -0.23374267 0.062109783 -0.2973889 0.54059047
000220 d0 e7 0d bf cc 17 37 3e ce c8 14 be ac 60 ee be
       -0.5543184 0.17880172 -0.14529726 -0.4655813
000230 6e e3 e9 be ff 44 c2 be 45 ca b6 3d fd 4c ef bd
       -0.45681328 -0.37943265 0.089252986 -0.11684606
000240 06 9d e8 bd ae fa de be cf f9 bd bd 1c fd 00 bf
       -0.11358075 -0.43550628 -0.09276163 -0.50386214
000250 50 00 eb bd d1 45 c1 3d 48 78 21 bf ff f4 9e bd
       -0.11474669 0.094371445 -0.6307416 -0.07761573
000260 14 45 da bd e6 d8 b7 be 85 ab f1 be e6 5d c1 be
       -0.10657707 -0.35907668 -0.47201172 -0.3776695
000270 58 99 15 bb e6 9b 05 bf fd 69 ac be 0d d9 41 be
       -0.0022826996 -0.5219101 -0.33674613 -0.18930455
000280 ff fc 33 3b fd 20 00 bf eb 21 33 3e 58 db b7 be
       0.002746403 -0.50050336 0.17493407 -0.35909534
000290 6b 70 31 be 05 51 1c be 27 32 ea be 10 17 4a 3d
       -0.1732804 -0.15265281 -0.45741388 0.0493384
0002a0 fe bd 97 3e d9 b1 15 bf 4b 2e af be 07 66 27 bd
       0.2963714 -0.584745 -0.34215006 -0.040868785
0002b0 47 67 b2 3e 0d 5a 46 be d6 c2 fb 3d 05 2a ab be
       0.3484442 -0.19370289 0.122930214 -0.33430496
0002c0 01 21 90 be 9c 76 a8 be f1 5e 2d bf e5 e6 1e bd
       -0.2815018 -0.32902992 -0.67722994 -0.038794417
0002d0 25 42 c3 bd 92 0c 95 bc ec 81 27 3e 26 3c 10 bf
       -0.095341004 -0.01819447 0.16358155 -0.5634178
0002e0 55 08 08 3d 32 47 eb bc 8b 1b a3 be b4 4d 9c 3d
       0.03321107 -0.028720472 -0.3185695 0.07632008
0002f0 98 a2 03 be cf 81 e0 3e 88 26 3a bf 22 28 a2 be
       -0.12854993 0.43849036 -0.72715044 -0.31671244
000300 df fb 0e bf 01 1e 42 be 16 25 4e bf 21 47 7a 3d
       -0.55853075 -0.18956758 -0.8052534 0.06110299
000310 cc 9f 17 bf b6 47 91 be 47 9c c8 be e0 78 0d be
       -0.59228206 -0.28375024 -0.3918173 -0.13815641

fc2.weight f4 [150, 200]
000000 ee 03 86 3d cf 24 40 bd 2b e7 c2 bd a2 70 cc bd
       0.06543718 -0.046910103 -0.09516748 -0.099824205
000010 5f da b7 3b b4 54 da bc e4 c5 e4 3c b9 cd dd bb
       0.0056107487 -0.026651718 0.027926393 -0.006768909
000020 7c 32 a1 bd d2 b7 c6 bc 06 3e ca bc 88 76 0b bd
       -0.07870957 -0.024257574 -0.024687778 -0.034048587
000030 9b 2c ce bc 7c a9 a0 bd b1 57 8b 3c 3c 7d ec bd
       -0.025167754 -0.078448266 0.017009588 -0.11547324
000040 a2 a8 a2 bd 92 d2 bc 3b 6e cd be bd 35 f4 c9 3c
       -0.079423204 0.0057624066 -0.09316526 0.02465258
000050 ae da 47 3d 1b b2 87 bd b1 95 82 bc 61 82 a0 bd
       0.048792534 -0.06625768 -0.015940519 -0.07837368
000060 65 ed 91 3c b9 12 82 3c d9 1c 6d bd 6c c3 06 3c
       0.017813394 0.015878068 -0.05788884 0.008225303
000070 6b 24 5c bd 5f 06 02 bd 24 72 e8 3c ed 3e 2d bd
       -0.05374567 -0.031744357 0.028374739 -0.04229634
000080 f9 be 70 bd b8 ff 47 bc d3 18 ce bc 4c 1f 0e be
       -0.058775876 -0.012206964 -0.025158321 -0.13879126
000090 e0 f2 2a bc 3e ea ac bd 56 2c 82 bd 9e 6b 4e bb
       -0.0104338825 -0.08443116 -0.06356113 -0.003149725
0000a0 d5 ab a8 bd b5 a7 3e bb 96 3a 72 bd e9 9a 2f bd
       -0.08235899 -0.002909166 -0.059137903 -0.042872343
0000b0 00 62 55 3c aa 74 2a bd b1 15 de bd 44 92 c2 bd
       0.013023853 -0.041615166 -0.10843981 -0.09500554
0000c0 e4 43 b7 bd cb d2 87 bd 63 d8 bb 3d 0f 3d b8 bd
       -0.08948496 -0.066320024 0.09172132 -0.08996021
0000d0 99 8b 08 3d 5e f0 14 bd 69 3c 10 be d7 fc 8a bd
       0.033336256 -0.036362045 -0.14085545 -0.067865066
0000e0 7c b9 08 be e5 e4 6e bd a0 a1 ef bc b4 ee 54 bd
       -0.13352007 -0.05832376 -0.029251873 -0.051985458
0000f0 56 12 35 be cd d5 53 3c a0 dd 52 3b cf 68 5c bc
       -0.17682776 0.012929392 0.0032175556 -0.013452723
000100 eb 5f fc 3a e7 85 1c bd ff bd 44 bd 40 96 87 bd
       0.001925466 -0.038213637 -0.048032757 -0.06620455
000110 3d 33 c4 bc 23 66 36 3c 53 43 9c bd 5c 69 a2 bd
       -0.023950214 0.01113275 -0.076300286 -0.07930252
000120 af b8 85 3c 3d 12 49 3d ff 7b c1 bd a6 ba fd bd
       0.016323416 0.04908966 -0.094474785 -0.12389116
000130 49 8c 2c bd a7 0c 84 bc 4f c8 0c be 54 1e 3c 3d
       -0.042125974 -0.016119314 -0.13748287 0.04592736
000140 69 4c 3d bd bf 61 5f bd 75 cd fa bd a0 39 98 bd
       -0.04621545 -0.054536577 -0.12246219 -0.07432866
000150 d2 32 3a bd c3 46 c3 ba d5 c2 ba 3b da 4e e1 bd
       -0.045458622 -0.0014898408 0.0056994953 -0.11001368
000160 f5 17 2d 3d 36 da 76 bd 15 0e d5 3c 27 6e 6f bd
       0.042259175 -0.060266696 0.026007691 -0.05845466
000170 fb e7 98 bb 6e f9 0c bc fb 41 e6 3c 1b 8b c4 bd
       -0.004666326 -0.008604391 0.028107634 -0.09596845
000180 0e c9 30 bd b6 41 23 bd 91 1a 94 bc ba 63 0d 3b
       -0.04316049 -0.03985759 -0.018079074 0.0021574334
000190 ee dd 21 bd c4 d8 9f bd 00 c4 b5 bc ad 78 07 3c
       -0.03951829 -0.07805017 -0.022188187 0.008268517
0001a0 dc 4b 29 3d 54 f2 70 bd 2e b4 cc 3b aa d1 d2 bd
       0.04133211 -0.058824852 0.006247065 -0.102938965
0001b0 32 23 97 3d d1 12 6c 3c 05 d4 95 bd 4f 5a eb bc
       0.0737976 0.014408783 -0.0731583 -0.028729586
0001c0 27 26 55 bd b0 db 3b bb dd fd d5 bb 6f 89 8b 3d
       -0.052038338 -0.002866488 -0.006530507 0.06813323
0001d0 e5 7b 2a 3d de f0 a1 bc 59 40 be bd 07 b7 35 bd
       0.04162206 -0.019768175 -0.09289617 -0.044364
0001e0 4a b5 c0 bc 28 94 0f 3d 1e d3 c6 bd 67 22 10 3d
       -0.023523945 0.035053402 -0.09708236 0.03518906
0001f0 02 83 f2 bd 85 fa 43 bd 5e f6 b5 bd 85 fe 73 bc
       -0.11841394 -0.047846336 -0.088848814 -0.014892225
000200 03 ef 97 3c 27 b1 b1 bc 36 d2 92 bc 3e 0a 36 bd
       0.018546587 -0.021690918 -0.017922502 -0.04444336
000210 41 92 ef 3c bb f9 af 3c a8 d5 84 bd fd ac 60 3c
       0.029244544 0.021481385 -0.06486064 0.013713119
000220 8f e5 c2 3d bb cd 90 3c 35 71 11 bd c1 ee dc bd
       0.09516441 0.017676225 -0.035508353 -0.10787726
000230 f2 02 91 3c db fb 90 3d 75 e8 ba bd f4 d4 9b bd
       0.0177016 0.070792876 -0.09126369 -0.07608977
000240 59 42 1a be 25 2b 5e bd 40 ac a5 bd e7 51 f3 3c
       -0.15064372 -0.054240365 -0.08089495 0.02970214
000250 e9 f2 02 bd 80 58 82 3d 19 e8 38 bd 12 84 19 bd
       -0.03196994 0.06364536 -0.04514322 -0.037479468
000260 19 42 78 bd 06 18 20 3c 6a d5 98 3d 01 24 ac bd
       -0.06060991 0.009771353 0.074625805 -0.08405305
000270 fc 1c 93 bc 17 bb 78 bd f8 18 1c bd 36 a7 db bc
       -0.017958157 -0.060725298 -0.03810975 -0.02681313
000280 55 3c af 3b ea 5e b9 bd cf 00 1a 3c d6 45 a6 3c
       0.0053477683 -0.090513065 0.009399607 0.020296972
000290 87 8b ff 3c fd 06 d7 3b 70 52 35 bd 9a dd d0 bc
       0.031194462 0.0065621124 -0.04426807 -0.025496293
0002a0 48 53 c6 bd 22 be 70 bd 42 d9 c3 3c 4c e0 cd bd
       -0.096838534 -0.058775075 0.023907308 -0.10052547
0002b0 5c 50 55 bd 44 86 56 3d cd 29 a1 bd 2a 43 df bd
       -0.05207859 0.05237414 -0.07869301 -0.109014824
0002c0 92 8d 8f bd 59 b1 2c bd d4 6e 5b bd 40 36 30 bd
       -0.07009424 -0.04216132 -0.05357249 -0.043020487
0002d0 d6 eb a9 bd 24 b1 cb 3c b4 60 a1 bd 1e 21 90 bd
       -0.08296935 0.02486474 -0.07879773 -0.070375666
0002e0 79 ab 9a bd ec 21 be bd 9c 6c 34 bd eb 26 b8 3b
       -0.07552237 -0.09283814 -0.04404889 0.0056198738
0002f0 d7 f9 e4 3c 19 9a 83 bd 24 85 c0 bd 06 ba 4c bd
       0.027951164 -0.06425876 -0.094003946 -0.049982093
000300 ac fa 53 bd 88 b5 f5 3b 69 d3 9a bc a3 95 5a 3d
       -0.05175273 0.007498447 -0.018899636 0.05336536
000310 a3 5c 86 bc a3 3a 82 3d 15 39 fe 3c 4d 4f 51 bc
       -0.016401595 0.0635884 0.031033078 -0.012775254
000320 33 cf ff bd 13 6c 3d bf 0d 27 16 be a5 74 41 be
       -0.12490692 -0.73993033 -0.14663334 -0.18892153
000330 70 62 64 be e2 4f 94 be 87 5c 1e be d3 ba 05 3d
       -0.22303176 -0.28967196 -0.15464984 0.032648873
000340 ed 16 a6 bd 44 86 80 be 87 6d 88 bf 4a 13 6b 3c
       -0.081098415 -0.25102437 -1.0658425 0.014347861
000350 8f f3 ef bd 36 1d 82 be d9 7b 00 be f2 ce ff bd
       -0.11716377 -0.2541291 -0.12547244 -0.124906436
000360 f9 c1 db bd b9 c2 82 3b 65 a2 3a be 7d 02 7f bd
       -0.10730357 0.003990498 -0.18226011 -0.062258232
000370 21 25 82 be c6 e0 4e 3e 7f 89 9a be 3a c0 09 3e
       -0.25418952 0.20202932 -0.30183026 0.13452235
000380 6c 16 d5 be 85 62 79 be 8f 3d ff bc 1a 97 2e 3d
       -0.4161867 -0.24353988 -0.031157283 0.04262457
000390 24 5d f6 bd c0 22 77 bd a6 4d 2e bf 8a b5 3d bd
       -0.12029484 -0.060335875 -0.6808723 -0.046315707
0003a0 d1 5f 3d bf 8e 89 99 3d 8f 64 9d be e5 fe 3e be
       -0.7397433 0.074969396 -0.30740783 -0.18651922
0003b0 34 26 b0 be 86 31 8e bd 6e d5 15 bd 19 f6 60 be
       -0.34404147 -0.069430396 -0.036580496 -0.21968879
0003c0 d3 d4 0d be a4 46 e6 3a 57 b2 36 be ae 6e c4 bd
       -0.13850717 0.001756866 -0.17841469 -0.09591423
0003d0 60 4a d9 3c 50 3e 97 bd 79 23 ad bd 7c b0 6c be
       0.026524723 -0.07384932 -0.084540315 -0.23114198
0003e0 21 eb 03 3d 8b bd e5 3d d1 4e ce bd e9 2b 7b be
       0.03220666 0.11217793 -0.10073627 -0.24528469
0003f0 4d 27 cd 3d 29 9d 4c 3e 5a db ab bd f1 09 4d 3e
       0.10017262 0.19981827 -0.08391447 0.20023324

fc2.bias f4 [150]
000000 76 c3 f0 bd 89 d9 12 bd 7f 62 50 be 75 35 ff bb
       -0.11756031 -0.03585199 -0.20350073 -0.007788355
000010 5c 56 47 be 6a 80 15 3e 8c 30 72 3e c6 13 31 3e
       -0.19466537 0.14599767 0.23651332 0.17292699
000020 8a 93 89 bd 16 f9 13 bf 37 ff 41 bd af 72 61 be
       -0.06717594 -0.5780195 -0.047362532 -0.22016405
000030 f8 62 24 be e4 62 c3 bc 62 86 29 be dc 6d 1c bd
       -0.16053379 -0.023850866 -0.16555169 -0.038190708
000040 65 a3 35 be aa c2 ee bd a5 d7 23 bc 20 67 87 3f
       -0.17738111 -0.11658223 -0.010000144 1.0578346
000050 88 84 0d be 94 84 f1 bd f0 2c b5 bd 01 33 a4 be
       -0.13820088 -0.117928654 -0.08846462 -0.32070163
000060 a2 05 aa be 94 86 ba bd 45 73 38 bd 3a 9e 8b bd
       -0.33207422 -0.091077 -0.045031805 -0.06817289
000070 96 87 96 bd 05 7a e3 bd 54 7c c6 bd ca 65 64 bd
       -0.0735008 -0.11107258 -0.096916825 -0.055761136
000080 a4 ce d4 bd f0 e3 4c bd fa cd 30 be d2 67 84 be
       -0.10390976 -0.050022066 -0.17266074 -0.2586046
000090 cb 2f 16 bf 65 ab 91 be 24 de 71 bd f2 3e 7b be
       -0.58666676 -0.28451076 -0.05904974 -0.2453573
0000a0 96 03 60 3e 5d 05 be bd 1c 90 b2 bd c0 8c ba bd
       0.21876368 -0.09278367 -0.08718893 -0.09108877
0000b0 cb 5e a5 bd 6b 80 4b bd 84 56 ae bd b9 7b a4 bd
       -0.08074721 -0.049683016 -0.08512595 -0.08031411
0000c0 34 08 bb bd 2e 18 40 be 3b 8a 78 bd b0 10 fa bd
       -0.09132424 -0.18759224 -0.0606787 -0.12210214
0000d0 88 50 da 3e cc cb 43 3f 51 6b e4 bd a9 ed 45 bd
       0.42639565 0.76482844 -0.111532815 -0.048322354
0000e0 e3 db f9 bc d0 50 d4 bd 43 9d 21 3d 1f b8 1e be
       -0.030500358 -0.10366976 0.039456617 -0.15499924
0000f0 4c b6 ea bd 9e f8 d4 bd 53 bc c2 bd f8 2c 93 bd
       -0.114605516 -0.103989825 -0.09508576 -0.071863115
000100 9f 11 dd bd f0 6a 27 be 82 00 db bc 27 d3 a4 bc
       -0.107943766 -0.16349387 -0.02673364 -0.020120217
000110 ed 29 56 bc f9 09 c9 bd 54 89 08 3f 6f 37 27 bc
       -0.013071519 -0.09816355 0.53334546 -0.0102060875
000120 f2 77 d9 bd 14 e4 c8 3e e7 9e 17 be 8d 4d c3 bd
       -0.10618581 0.3923651 -0.1480671 -0.09536276
000130 aa c6 1d be e2 02 36 be ad ef f6 bd 32 72 33 bd
       -0.15407816 -0.17774537 -0.12057433 -0.043810077
000140 5d 2d c0 bd 5e a5 51 be f8 92 1d be 63 43 32 3e
       -0.09383652 -0.20473239 -0.15388095 0.17408518
000150 3d 5d b0 bd c9 5e c5 bd 7c 7f 38 bd 71 23 03 be
       -0.08611534 -0.096372195 -0.045043454 -0.12806489
000160 7d e8 5a be d2 30 4c bd c4 6b 75 bd c3 c7 a2 bc
       -0.2137775 -0.049851246 -0.059917226 -0.019870644
000170 1c 04 e3 3d 4b d2 4b be 77 c5 1d 3e bf 11 18 be
       0.11084768 -0.19904439 0.15407358 -0.1485052
000180 15 aa eb bc 6a aa 18 be 2d 95 1f be d5 4f 50 be
       -0.028767625 -0.14908758 -0.1558425 -0.20342954
000190 0c f1 23 be 3d c2 b1 bd 3e 24 71 3d ac fb 36 3e
       -0.16009921 -0.08679626 0.058872454 0.17869443
0001a0 f3 b4 eb bd f3 3f cd 3e 7a 86 14 bd 3e 34 5d 3f
       -0.11509123 0.40087852 -0.03626106 0.8640784
0001b0 ca e6 2f 3f a1 f3 26 be af 01 d5 bd d1 f4 1d be
       0.6871153 -0.16303875 -0.10400712 -0.15425421
0001c0 97 ad 16 be 24 c1 49 bf 84 79 7b be 16 5b 0a 3d
       -0.14714657 -0.78810334 -0.24558073 0.033778273
0001d0 a4 8c f0 bd 2d ee fc bc 4f 54 9b bd 3d 94 33 be
       -0.11745575 -0.03087529 -0.0758444 -0.17537017
0001e0 fd 98 4c be be fd 6b 3e d3 de 1d bc 65 49 12 be
       -0.19980235 0.23046014 -0.009635645 -0.1428581
0001f0 fd 59 17 be f0 d0 cf be 7d 26 41 bf d0 0d 21 be
       -0.14780422 -0.40589094 -0.75449353 -0.15727925
000200 34 d5 11 be d2 65 1d be 88 a0 61 be b1 e9 0a bd
       -0.14241487 -0.15370873 -0.22033894 -0.03391427
000210 ec c0 38 bd 77 a5 9d be 25 fe e8 bd 64 51 ad bd
       -0.04510586 -0.30790302 -0.11376599 -0.0846279
000220 1a 8a 16 be 87 78 ea bd 62 29 33 be af 0a 81 bd
       -0.14701119 -0.1144877 -0.17496255 -0.06300866
000230 57 8b 34 be 1c 45 a9 3e e4 68 47 bd 1f 5d 1e be
       -0.17631279 0.3306054 -0.048684016 -0.1546521
000240 de 6c a3 bd ad 7a 0f bd 6d 7f 02 be 07 54 5f bd
       -0.07979749 -0.035029102 -0.12743922 -0.054523494
000250 e3 99 2a be 8e 72 41 be
       -0.16660266 -0.18891355

fc3.weight f4 [1, 150]
000000 58 37 12 bb 80 ff 42 bc 45 5b 3d 3d 0c 11 4e 3c
       -0.002231082 -0.011901736 0.04622962 0.0125773065
000010 87 b5 4e bc 38 40 05 bc 84 99 07 3c df 52 d4 bc
       -0.012616522 -0.008132987 0.008276347 -0.025918422
000020 a6 33 ae 3c 95 5f 73 bc 2b fc 37 3c b0 22 38 bc
       0.021264862 -0.0148543315 0.011229555 -0.011238739
000030 68 ad cf 3c 59 86 2e 3b 01 5e bc b8 f5 9d a0 bb
       0.025351241 0.002663037 -8.982048e-05 -0.0049016424
000040 c7 8e b6 3c 1a 44 21 bc 00 8f 9d bc 7a 9c 20 3c
       0.022284878 -0.009842897 -0.019233227 0.009802932
000050 99 df d2 bc a1 c2 91 bc 60 f7 39 bc f8 48 ac bc
       -0.025741385 -0.017793002 -0.011350483 -0.021030888
000060 66 cd 25 bc 39 15 66 3c 4c 2a 6a 3c 79 d8 52 3c
       -0.010119772 0.014043146 0.014292311 0.012868994
000070 ae ce 8a bc 13 45 ce bc 3e f2 05 3c 88 b6 8b 3b
       -0.016944256 -0.025179422 0.008175431 0.004263703
000080 bf 27 05 3c 45 89 4c bc fb 16 83 bb a2 2e 9d 3b
       0.008127152 -0.0124838995 -0.004000542 0.004796819
000090 0e f2 9f bc 57 00 3c bc 77 c0 a5 3b 29 14 a1 3a
       -0.0195246 -0.01147469 0.005058344 0.0012289333
0000a0 9d 51 a5 3c b2 1a 8a bb b1 d1 17 bc 24 d8 22 bc
       0.020180518 -0.004214608 -0.009266303 -0.009939227
0000b0 b1 75 fe 3b 42 de c5 3c 80 6d 47 3c dc bd c2 3b
       0.0077654948 0.024153832 0.012172103 0.005943043
0000c0 56 c8 6e bc 03 21 8f bc 75 9c b2 3c be 34 e6 3a
       -0.014574131 -0.017471796 0.02180312 0.0017563326
0000d0 cb f1 0b 3c 80 cb 6d 3c 28 73 dc bc a1 9a 4c bc
       0.008541535 0.01451385 -0.02691038 -0.012488038
0000e0 07 da 16 bc a5 fc d0 3b 79 f0 26 bc 4a 14 1e 3c
       -0.009207255 0.006377774 -0.010189169 0.009648392
0000f0 a5 55 c2 bc f6 d3 20 bc 68 0e 77 bc a1 05 82 bc
       -0.02372248 -0.00981616 -0.015079118 -0.015871825
000100 fa 15 56 3c c0 d1 d2 bb 1a d4 89 bc ae 4b 97 3c
       0.013066763 -0.0064336956 -0.01682477 0.018468704
000110 61 83 d3 ba a8 69 30 b9 13 8b 2d bd 6d 93 a7 3b
       -0.0016137176 -0.00016824028 -0.04236896 0.00511401
000120 fa 55 d2 3c a6 34 ed bc 88 fd 22 3c 70 fa 84 3b
       0.025675762 -0.028955769 0.009948142 0.004058175
000130 a8 a1 cb 3c eb 4d 47 bc 42 d4 e9 bb 70 d2 a7 bb
       0.024857357 -0.012164573 -0.007135899 -0.0051215217
000140 da db e8 bc b3 3f 47 bc 58 ea fc 3c 23 82 48 3c
       -0.028425146 -0.012161183 0.030873463 0.012238058
000150 19 71 83 3a 7c 5f 75 3b 1a 67 01 3b 2f ee 84 bc
       0.0010028213 0.0037440946 0.0019745291 -0.016226856
000160 7b 57 18 bc b5 02 6e bc 5b 0d a7 3c 4c 54 25 bc
       -0.009298201 -0.014527013 0.02039211 -0.010090899
000170 ac fe 47 3d ce 8f f5 3a 1c b0 be 3b 92 3e d9 bb
       0.04882686 0.0018734874 0.0058193337 -0.0066297734
000180 7e 56 68 ba 8d ce e4 3b 28 40 65 bc d3 31 27 3c
       -0.0008862986 0.0069826306 -0.013992347 0.01020475
000190 89 42 b2 3b 17 33 94 3c 2b 40 7b 3c ef 1a 1b bd
       0.0054400605 0.018090768 0.015335123 -0.037867483
0001a0 f9 97 2a 3c 7d f9 01 bc 7a f8 a0 bb 79 67 50 3c
       0.01041221 -0.007933018 -0.004912433 0.012719982
0001b0 6f 25 51 3c 8c 62 6b bd 1e 20 92 3b 87 d7 51 bc
       0.0127652725 -0.05746703 0.004459395 -0.012807733
0001c0 0c f5 88 bc 71 fb 40 bc eb cf af bb 06 37 50 3d
       -0.01671841 -0.011778698 -0.005365362 0.050833724
0001d0 2e 8c 72 3c 62 b0 53 3c 71 2e 59 bc af 25 3b bc
       0.014803929 0.012920471 -0.013255701 -0.011422559
0001e0 11 4e e0 3c 86 bd 3d 3d e6 91 85 bc 13 9d bf bc
       0.027380975 0.04632332 -0.016304921 -0.023390329
0001f0 ee e2 89 3b 93 82 a0 bc 13 aa 91 bc c7 04 2d 3c
       0.0042079603 -0.019593513 -0.017781293 0.010560221
000200 7f bd 83 bc 01 dd 6f bc c2 01 a7 3c c1 cb 2a 3c
       -0.01608157 -0.014640094 0.02038658 0.010424555
000210 2c 26 25 bc 0c 0d ed bb 8e 62 22 3c bd 99 5f 3c
       -0.010079902 -0.0072342213 0.009911193 0.013647494
000220 87 d6 11 bc 58 f5 c1 ba e4 08 94 b9 84 5c f2 bb
       -0.008901245 -0.001479785 -0.00028235384 -0.0073962826
000230 e7 54 08 3c 6d ee a6 3d 97 03 bd 3c a2 91 e8 bc
       0.008321024 0.08150945 0.023073 -0.028389756
000240 e3 77 7d bb f1 86 95 bc d8 3f 14 3b e9 f5 91 3a
       -0.0038676194 -0.018252822 0.0022621062 0.0011135909
000250 ae 89 94 bc f2 66 de 3c
       -0.018132057 0.027148698
