agent2_checkpoint_actor.pth (torch_old, 142847 bytes, 6 tensors)

fc1.weight f4 [200, 24]
0	0xbab7c478	-0.0014020344
1	0xbddc525a	-0.10757895
2	0xbd367d37	-0.044553008
3	0x3d072a4c	0.03299932
4	0xbcf2e621	-0.02965075
5	0xbb68dc39	-0.0035531654
6	0x3c6b4dd2	0.0143618155
7	0xbd779c00	-0.060451508
8	0x3d0222f0	0.0317716
9	0xbdd0d715	-0.10197274
10	0xbc5d1c6d	-0.013495547
11	0x3d829d9a	0.06377716
12	0xbe0cb7cb	-0.13741986
13	0xbc21a049	-0.009864875
14	0x3a5b48a2	0.000836501
15	0x3db511e7	0.08841305
16	0x3c0d40c6	0.0086214
17	0xbd5ee496	-0.054417215
18	0xbd1369ce	-0.035989575
19	0x3df05879	0.11735625
20	0xbe4e198f	-0.20126937
21	0xbca1cb0d	-0.019750142
22	0x3d619598	0.055074304
23	0x3d268900	0.040657997
24	0xbd517fca	-0.05114726
25	0x3cab5cfb	0.02091836
26	0xbdde7437	-0.1086201
27	0x3d958344	0.073004276
28	0xbbab37a7	-0.00522514
29	0x3d14b814	0.036308363
30	0xbd39ced0	-0.045363247
31	0x3d56f94f	0.052483853
32	0xbd1d8e6e	-0.03846591
33	0x3d0b7ee9	0.034056578
34	0xbd23ad99	-0.039960478
35	0x3de31e7a	0.11089797
36	0x3c424200	0.011856556
37	0x3dc9c484	0.098519355
38	0xbd395bd1	-0.04525358
39	0x3d6c8b3d	0.057749975
40	0xbca69322	-0.02033383
41	0x3dcb5f39	0.09930272
42	0x3bf42797	0.0074510085
43	0x3c7c4a03	0.015398505
44	0xbd15fa15	-0.03661545
45	0x3e0d8569	0.13820423
46	0xbcb903f8	-0.0225849
47	0xbba43179	-0.0050107804
48	0xbbb87a4d	-0.0056298138
49	0xbe7909e7	-0.24320184
50	0xbd8d537f	-0.06900691
51	0xbd158887	-0.036507156
52	0x3de361d2	0.11102642
53	0xbdb710f9	-0.08938784
54	0xbd674ff5	-0.056472737
55	0xbd0745f4	-0.033025697
56	0xbd47ffc9	-0.04882792
57	0xbdf57510	-0.119852185
58	0xbdb89ad0	-0.09013903
59	0xbd5ba846	-0.053627275
60	0x3e0b45fb	0.13600914
61	0xbc58927c	-0.013218518
62	0xbdd55870	-0.10417259
63	0xbe12c830	-0.14334178
64	0x3d4e44c2	0.05035854
65	0xbe406cfa	-0.18791571
66	0xbd70d98d	-0.058801223
67	0xbd343c91	-0.044003073
68	0x3d95c895	0.073136486
69	0xbdd5eeb5	-0.104459204
70	0x3d62016b	0.055177134
71	0xbc162884	-0.009164933
72	0xbdda2e95	-0.10653416
73	0xbe74afe8	-0.23895228
74	0x3d43cee1	0.047804717
75	0xbd9f1b65	-0.07768897
76	0xbe9adad5	-0.3024508
77	0x3dcf3434	0.10117379
78	0x3d29d28d	0.041460562
79	0x3d44ec0a	0.048076667
80	0xbdb975dd	-0.09055684
81	0xbddbb255	-0.107273735
82	0x3d269f99	0.040679548
83	0x3b7d5fa4	0.0038661743
84	0xbe18fd47	-0.14940368
85	0xbe003c0e	-0.12522909
86	0x3c86d4fb	0.016458979
87	0xbd414642	-0.047186144
88	0xbc0119a7	-0.007879651
89	0xbe1c6644	-0.15273386
90	0x3d06285c	0.032753333
91	0xbd6b8025	-0.057495255
92	0xbdf1a3af	-0.11798798
93	0xbe859d0a	-0.26096374
94	0xbd1714b6	-0.036884986
95	0xbe02deaf	-0.1278026
96	0xbc92a9f3	-0.017903304
97	0x3e4c270c	0.1993677
98	0xbdcac458	-0.09900731
99	0x3d4e8fb2	0.050430007
100	0xbd18df9b	-0.03732262
101	0x3e36ef5b	0.17864744
102	0xbc92b3aa	-0.017907936
103	0x3e1585c1	0.14601804
104	0x3b7dca7a	0.0038725422
105	0x3e8d93b9	0.27651766
106	0x3d578511	0.052617136
107	0x3dd860ea	0.1056536
108	0x3d846980	0.06465435
109	0xbcec589b	-0.028850844
110	0xbc657eda	-0.014007295
111	0x3d9f7ed6	0.07787864
112	0xbde7d5c2	-0.11320068
113	0x3e7e8692	0.24856022
114	0xbda35eae	-0.07977043
115	0xbd432ba2	-0.047649033
116	0x3db121e4	0.08649042
117	0xbd985f2a	-0.07440026
118	0xbce269e1	-0.027638378
119	0x3d46f662	0.048574813
120	0xbd120177	-0.03564593
121	0xbe1ed5b1	-0.15511204
122	0x3d19d624	0.037557736
123	0xbda1a070	-0.07891929
124	0xbe0c28c6	-0.13687429
125	0xbda5ae66	-0.080899045
126	0x3c22cdf2	0.0099367965
127	0xbe2e6da0	-0.17034006
128	0xbd4b739b	-0.049670797
129	0xbe212ea5	-0.1574045
130	0x3d227b66	0.039668463
131	0xbc0fb874	-0.008772004
132	0xbe1f027b	-0.1552829
133	0x3dbea50c	0.09308824
134	0x3ccc6bc9	0.02495374
135	0x3ddd35dd	0.10801289
136	0xbdd9c2a1	-0.10632826
137	0xbe414394	-0.18873435
138	0x3d5fe6bf	0.054663416
139	0x3e0c52ee	0.1370351
140	0xbe84d3bd	-0.25942793
141	0x3e0d29af	0.13785432
142	0xbd3bd67a	-0.045858838
143	0x3e042f60	0.12908697
144	0x3d036170	0.032075346
145	0xbdf20881	-0.11818028
146	0x3d2b6b2c	0.041850254
147	0xbb9bad24	-0.0047508646
148	0xbded412f	-0.115846984
149	0x3d32f5f8	0.043691605
150	0xbd917cd1	-0.07103885
151	0x3ca12f98	0.019676015
152	0x3c6279fc	0.013823029
153	0xbdc7395c	-0.09727737
154	0x39c6a2ed	0.00037886892
155	0xbc4cc14f	-0.01249726
156	0xbd7a8165	-0.061158556
157	0x3e047c4e	0.12938043
158	0xbd9ea655	-0.07746569
159	0x3cb6d5d2	0.022318754
160	0xbe01f4cc	-0.12691039
161	0xbdbe30cf	-0.09286653
162	0xbc907757	-0.01763503
163	0xbd07eff5	-0.033187825
164	0x3db0dcb8	0.08635849
165	0x3e1e110d	0.15436192
166	0x3d2fcb57	0.04291853
167	0xbdcc5df3	-0.09978857
168	0x3d04ae9b	0.03239308
169	0xbd625922	-0.055260785
170	0x3d34fe40	0.044187784
171	0xbcd043ba	-0.02542292
172	0xbc2a620d	-0.010399354
173	0x3e11031d	0.14161344
174	0xbd81907a	-0.06326385
175	0x3cc4969e	0.023997601
176	0xbde3e596	-0.111277744
177	0xbd572403	-0.052524578
178	0x3cd04ff4	0.02542875
179	0xbdf40e01	-0.119167335
180	0xbdda8ca9	-0.1067136
181	0x3e2f8094	0.17138892
182	0x3d78d5fa	0.06075094
183	0xbcb1ba81	-0.021695377
184	0xbd09be0c	-0.03362851
185	0x3d1b16a9	0.037863407
186	0x3d25dbdd	0.04049288
187	0xbd1f42d3	-0.038882088
188	0xbe1be486	-0.15223894
189	0x3d151426	0.03639617
190	0xbdad810e	-0.08471881
191	0xbe13ae20	-0.14421892
192	0x3d94b2bb	0.07260653
193	0xbdf2a730	-0.11848295
194	0xbca390bb	-0.019966474
195	0x3deada77	0.1146745
196	0xbdaddaae	-0.084889755
197	0x3d7c0eb1	0.06153745
198	0xbc389ce9	-0.011267879
199	0x3c9d48aa	0.019199688
200	0xbd184183	-0.03717185
201	0xbde57756	-0.11204402
202	0x3c941fcf	0.018081574
203	0xbd0583da	-0.032596447
204	0xbdeb2886	-0.114823386
205	0xbc7550a9	-0.014972844
206	0x3d8beaae	0.06831871
207	0x3cae657b	0.021288624
208	0xbcee8a09	-0.029118555
209	0xbddd351b	-0.10801145
210	0x3c02b87a	0.007978553
211	0x3d86d6c1	0.0658393
212	0xbd815265	-0.06314544
213	0xbde981e1	-0.114017256
214	0x3d88078c	0.066420645
215	0xbc2599b7	-0.010107449
216	0x3e19df0d	0.15026493
217	0x3ca2c40c	0.019868873
218	0xbd87fdbe	-0.06640194
219	0x3c347fb8	0.011016779
220	0xbdef9fae	-0.11700378
221	0xbcf14022	-0.029449526
222	0xbccb0f77	-0.024787648
223	0xbc13b06d	-0.009014231
224	0x3e90cb94	0.28280318
225	0x3dc2ccf4	0.09511748
226	0x3d1f0500	0.038823128
227	0x3d4e168a	0.050314464
228	0xbdcee75e	-0.101027235
229	0xbdc55c5f	-0.09636759
230	0xbd9d66bc	-0.07685611
231	0x3d536ada	0.051615573
232	0x3e929b2e	0.28634018
233	0x3d7da7e2	0.061927684
234	0x3d3e2d4a	0.04642991
235	0x3c614923	0.013750347
236	0xbd32dc27	-0.043666985
237	0xbe859158	-0.2608745
238	0xbc9363d5	-0.01799194
239	0xbd2dc14f	-0.04242068
240	0xbd5001d8	-0.05078301
241	0x3da27eaf	0.07934319
242	0xbda0addd	-0.07845662
243	0xbd9c4d93	-0.076319836
244	0xbd6bbc38	-0.057552546
245	0x3c83c180	0.016083479
246	0xbd97a085	-0.074036635
247	0xbd40c189	-0.04705957
248	0xbd837634	-0.0641903
249	0x3da2cd3f	0.07949304
250	0x3d20826f	0.03918689
251	0x3d8733a8	0.066016495
252	0x3b5644ad	0.0032694743
253	0xbd77ed66	-0.060529135
254	0xbda63510	-0.081155896
255	0xbce16ad7	-0.027516766

fc1.bias f4 [200]
0	0x3df52c73	0.11971369
1	0x3b20381f	0.0024447513
2	0x3d48f687	0.04906323
3	0x3c85f72d	0.016353214
4	0xbddb492f	-0.10707318
5	0x3ca9ecde	0.02074283
6	0x3daaca01	0.083393104
7	0xbde82cb0	-0.113366485
8	0x3e481eb9	0.1954297
9	0xbe81e71a	-0.2537163
10	0xbd94939a	-0.07254715
11	0xbde6f397	-0.1127693
12	0x3e58fcf1	0.2119024
13	0xbcbfb8d7	-0.023403568
14	0x3e27e28e	0.16395018
15	0x3e0696fe	0.13143536
16	0xbb83efab	-0.0040263734
17	0x3dd35d7a	0.103205636
18	0x3dadae2a	0.08480485
19	0xbde41810	-0.11137402
20	0xbd833747	-0.06407028
21	0x3e6fd1c3	0.23419861
22	0x3e20db2a	0.15708604
23	0xbe0c71e1	-0.13715316
24	0xbd05fde8	-0.032712847
25	0x3dc70d4b	0.09719332
26	0x3e13047f	0.14357184
27	0xb9819a49	-0.0002471975
28	0xbde1b9b1	-0.11021746
29	0xbe3565c5	-0.17714603
30	0x3c38dc3c	0.011282977
31	0x3ca937fb	0.020656576
32	0xbdabfbb8	-0.08397621
33	0xbe0e39e9	-0.13889278
34	0xbda157bd	-0.07878063
35	0x3e43195b	0.19052641
36	0xbdadd32a	-0.08487542
37	0xbe51e5fa	-0.20497885
38	0x3e052150	0.13000989
39	0x3e3a7944	0.18210322
40	0xbe3440bb	-0.17602818
41	0xbe512784	-0.2042523
42	0xbd6f6a86	-0.058451198
43	0x3e40ec56	0.18840155
44	0xbdca4b72	-0.09877671
45	0x3d88c68e	0.06678496
46	0x3e45e9b4	0.19327432
47	0x3c90df5f	0.017684637
48	0xbc1a6994	-0.009424586
49	0xbe1dc5ea	-0.1540753
50	0xbd08ebdb	-0.033428054
51	0x3e4aa80f	0.19790672
52	0x3e44caf8	0.19218051
53	0x3e166341	0.146863
54	0x3cd9bdd3	0.026579773
55	0xbd1afd6c	-0.03783934
56	0xbd4c750c	-0.049916312
57	0x3d6659cb	0.056237977
58	0x3c93a197	0.018021388
59	0xbe86c30d	-0.26320687
60	0xbda58566	-0.08082084
61	0x3d23a9d8	0.039956897
62	0x3e81c90c	0.253487
63	0x3d4785f4	0.048711732
64	0xbe4c49fc	-0.19950098
65	0xbd8908f1	-0.066911586
66	0xbe3f805d	-0.1870131
67	0x3de0e824	0.10981777
68	0x3d9f3c25	0.077751435
69	0x3d46515c	0.048417434
70	0x3d5018f7	0.05080506
71	0x3e54962e	0.20760414
72	0x3dbc9994	0.0920898
73	0x3d65ecde	0.056134097
74	0x3db02cc5	0.08602289
75	0x3e1591a8	0.14606345
76	0x3e2fc84b	0.1716625
77	0xbd112a2d	-0.035440613
78	0xbdd2a71b	-0.10285779
79	0x3d67b601	0.056570057
80	0x3de01df2	0.109432116
81	0xbe40e9c3	-0.18839173
82	0xbde6743e	-0.1125264
83	0xbe2890c5	-0.16461475
84	0x3de0652d	0.10956798
85	0x3dbd6b1e	0.092489466
86	0x3c24347a	0.010022277
87	0x3b0a4fef	0.0021104773
88	0xbcfba0b1	-0.030716272
89	0x3e223231	0.15839459
90	0xbe9f3529	-0.31095245
91	0xbe193b6f	-0.14964078
92	0xbe2da2d1	-0.16956641
93	0x3e0c555a	0.13704434
94	0xbde5ec0e	-0.112266645
95	0x3d9d9c47	0.07695823
96	0x3d15204d	0.036407758
97	0xbdacd51a	-0.084390834
98	0xbd1bcfdf	-0.03804004
99	0xbdd3fa8b	-0.10350522
100	0x3df90615	0.12159363
101	0xbe000f8d	-0.12505932
102	0x3d02baa8	0.03191629
103	0x3c9036b3	0.017604208
104	0xbe38fb2b	-0.18064563
105	0xbe092d49	-0.13396181
106	0xbe2d7b61	-0.16941597
107	0x3dac4212	0.084110394
108	0x3dc89dab	0.09795698
109	0xbc3b96d3	-0.0114495335
110	0xbd443b4c	-0.047908112
111	0xbe8c6c55	-0.274264
112	0xbdfb7def	-0.12279879
113	0xbe2584a9	-0.16163887
114	0xbe7e66d4	-0.24843913
115	0xbe4fdb0f	-0.20298408
116	0xbdbe8570	-0.09302795
117	0xbe7de48b	-0.24794213
118	0x3ae604ca	0.0017549035
119	0x3d40fb7a	0.047114827
120	0x3e1f1c54	0.1553815
121	0xbe29401e	-0.16528365
122	0x3e0bed6a	0.13664785
123	0x3d1a0072	0.03759808
124	0x3e42d0ab	0.19024913
125	0xbe031d35	-0.1280411
126	0x3dff77c2	0.12474014
127	0xbe2a8103	-0.16650777
128	0x3d3e74fd	0.046498287
129	0x3e553dad	0.20824309
130	0x3e378d82	0.17925075
131	0xbe4ef43b	-0.20210354
132	0xbd9e4c0d	-0.07729349
133	0xbd0aeeef	-0.03391927
134	0x3d846f0f	0.06466495
135	0xbd96786a	-0.07347186
136	0x3d17b023	0.03703321
137	0xbd738b46	-0.059458993
138	0xbc55aa72	-0.013041126
139	0xbd8bbdaa	-0.06823285
140	0xbdc059a4	-0.093920976
141	0xbe48fdf8	-0.19628131
142	0x3e5e2a08	0.21695721
143	0x3e80b38b	0.2513698
144	0xba9664f7	-0.0011474182
145	0x3e02d019	0.12774695
146	0x3e2489e4	0.16068226
147	0xbdd1f0e6	-0.10251026
148	0xbdfba3d2	-0.122871056
149	0xbe351725	-0.1768461
150	0x3aa3055b	0.0012437509
151	0xbd28dfd4	-0.041229084
152	0xbb6baa56	-0.0035959682
153	0x3e534c24	0.20634514
154	0xbda36bdc	-0.07979557
155	0xbddc84cd	-0.10767517
156	0xbdf67afa	-0.12035175
157	0xbd48323b	-0.04887603
158	0x3e592f02	0.21209338
159	0xbe207343	-0.15668969
160	0xbd43185d	-0.047630657
161	0x3d8737c9	0.06602437
162	0xbe484fac	-0.19561642
163	0xbdaf18fe	-0.08549689
164	0x3e329c89	0.17442526
165	0xbdbcb480	-0.09214115
166	0xbd9d456d	-0.076792575
167	0x3b746c3f	0.0037295965
168	0xbd361b42	-0.04445959
169	0x3dc15275	0.094395556
170	0x3db7fa1f	0.08983254
171	0xbe054fa9	-0.13018669
172	0x3e5a7ddd	0.21337076
173	0xbe857aa0	-0.26070118
174	0x3dbf610d	0.09344683
175	0x3d9c7757	0.0763995
176	0xbe04d815	-0.12973054
177	0x3e44cc91	0.19218661
178	0xbe89651c	-0.26834953
179	0x3d9ebcae	0.077508315
180	0x3e7b50bd	0.24542518
181	0x3da337cd	0.079696275
182	0xbe1aac55	-0.15104802
183	0x3d5ae9ab	0.0534455
184	0x3e8ab86a	0.27093822
185	0xbe417f58	-0.18896234
186	0x3e214e3c	0.157525
187	0xbdcff49b	-0.10154077
188	0xbd51a742	-0.0511849
189	0xbe329108	-0.17438138
190	0x3c2390b7	0.009983233
191	0xbd57fd46	-0.052731775
192	0x3e32701d	0.1742558
193	0xbd465251	-0.048418347
194	0xbd8c2b4d	-0.068441965
195	0xbd91c355	-0.07117335
196	0xbde568e2	-0.112016454
197	0xbd33ed58	-0.04392752
198	0x3d4c693a	0.04990504
199	0xbe2398d3	-0.15976267

fc2.weight f4 [150, 200]
0	0x3d0da813	0.034584116
1	0x3cd9c044	0.026580937
2	0x3d7dcedf	0.061964866
3	0x3e7643c9	0.24049295
4	0x3e0a8e24	0.13530785
5	0xbddb80e3	-0.107179426
6	0xbdfeab69	-0.12435038
7	0xbd5f2a1d	-0.05448352
8	0xbcb46fcb	-0.022025963
9	0x3eb9fca5	0.36325565
10	0x3de05252	0.10953201
11	0x3d245e3e	0.04012894
12	0xbdd95b58	-0.106131256
13	0xbcfe1a87	-0.031018509
14	0x3de3797e	0.11107157
15	0xbdc6a934	-0.09700242
16	0x3e1de4eb	0.15419357
17	0xbd1f11ad	-0.038835216
18	0x3d448b10	0.047984183
19	0xbd9af534	-0.075663
20	0xbd81f110	-0.06344807
21	0xbdcd75ab	-0.10032209
22	0xbc2aa7cd	-0.010415983
23	0xbda5587e	-0.08073519
24	0xbb690c6d	-0.0035560385
25	0x3e017478	0.12642086
26	0x3dbd5b24	0.09245899
27	0x3c911a1d	0.017712647
28	0xbd53ff47	-0.051757123
29	0xbd035a30	-0.03206843
30	0xbd76fad6	-0.06029781
31	0xbe06fe40	-0.13182926
32	0x3d075e4b	0.03304891
33	0xbdd564ea	-0.104196385
34	0x3d977c21	0.073967226
35	0xbda18cbb	-0.0788817
36	0xbddce689	-0.107861586
37	0xbe04f8df	-0.12985562
38	0x3d856284	0.06512931
39	0x3d6b7a2d	0.057489563
40	0x3d69183c	0.056907877
41	0x3d87ceec	0.06631264
42	0x3db2259e	0.08698581
43	0x3db4d639	0.08829922
44	0x3dd309af	0.103045814
45	0xbdc70c00	-0.09719086
46	0x3da6b786	0.08140473
47	0x3cf3432e	0.02969512
48	0x3d75864b	0.059942525
49	0x3d5e0901	0.054207806
50	0xbd808741	-0.06275798
51	0x3d4a7301	0.049426083
52	0x399d9592	0.00030056812
53	0x3ea3cf3c	0.31994045
54	0x3bb0224c	0.0053751823
55	0xbe416f8d	-0.1889021
56	0xbcbe9f7e	-0.023269411
57	0x3d49d167	0.049271967
58	0xbda5758c	-0.08079061
59	0xbcb1c6d1	-0.021701248
60	0xba770eeb	-0.0009424525
61	0xbcbf259e	-0.023333367
62	0xbc329a8a	-0.010901103
63	0xbe94bd79	-0.29050806
64	0xbdb41f82	-0.08795072
65	0x3da1d829	0.079025574
66	0x3d847789	0.06468112
67	0x3d8d9d4e	0.06914769
68	0xbe7bc4cf	-0.24586795
69	0x3d110e57	0.035414066
70	0xbe00215e	-0.12512729
71	0xbdb1ce64	-0.08681944
72	0x3e2dff1f	0.16991852
73	0x3e16c293	0.14722662
74	0x3c9830d4	0.01857797
75	0xbded5b1e	-0.11589645
76	0xbdaf073f	-0.08546304
77	0xbe3a2979	-0.18179883
78	0x3d159e0a	0.03652767
79	0x3e3c46a0	0.18386316
80	0xbd193a0a	-0.037408866
81	0xbe2d5a5e	-0.16929004
82	0xbde34def	-0.11098849
83	0x3dbaa162	0.091128126
84	0x3ca11545	0.019663462
85	0xbddbff5f	-0.107420675
86	0x3c368f1d	0.011142519
87	0xbdcd3563	-0.10019948
88	0xbe49558b	-0.19661538
89	0x3dc9fc0c	0.09862527
90	0xbdb56254	-0.08856645
91	0xbb900249	-0.0043948037
92	0x3e18007c	0.14843935
93	0x3e306ede	0.17229792
94	0xbc162fc0	-0.009166658
95	0xbcd16bb6	-0.025564056
96	0xbd628858	-0.05530581
97	0x3d9018ba	0.07035966
98	0x3e08e760	0.13369513
99	0x3e061732	0.13094786
100	0x3c55f3fa	0.013058657
101	0x3d9dce45	0.077053584
102	0xbe4fb087	-0.20282184
103	0xbc900ea5	-0.017585108
104	0x3dfd019e	0.12353824
105	0xbe529b03	-0.20566945
106	0x3d7a77b5	0.061149318
107	0xbe3d4561	-0.18483497
108	0xbdd59676	-0.10429089
109	0xbc2c8d74	-0.010531772
110	0xbcef9b7d	-0.029248947
111	0x3d70343b	0.05864356
112	0xbdd74bab	-0.105124794
113	0x3b1f234b	0.002428251
114	0x3b52086b	0.0032048475
115	0xbc32cf12	-0.010913627
116	0x3dbbc94c	0.09169254
117	0x3d7cdf97	0.06173667
118	0x3d82d4f4	0.06388274
119	0xbd36074c	-0.044440553
120	0xbd272d5a	-0.040814735
121	0xbd96b8d0	-0.07359469
122	0x3d9139bf	0.07091092
123	0xbd98e25d	-0.0746505
124	0x3d03593d	0.032067526
125	0x3d14e370	0.036349714
126	0xbd8ceba4	-0.068808824
127	0xbe0515e4	-0.12996632
128	0x3da0ac2b	0.078453384
129	0xbe287e76	-0.16454491
130	0xbd95d701	-0.07316399
131	0xbc93d8c8	-0.018047705
132	0xbdac0827	-0.083999924
133	0x3d6a63e2	0.057224162
134	0xbd55977c	-0.05214642
135	0x3deef617	0.11668032
136	0x3dab51d5	0.083652176
137	0xbe35af7c	-0.17742723
138	0xbcf895f8	-0.030344948
139	0xbd8fc74e	-0.07020436
140	0x3be9a62c	0.007130405
141	0x3d918d48	0.071070254
142	0x3de85506	0.11344342
143	0xbcb78b67	-0.02240534
144	0xbd663102	-0.05619908
145	0x3db07c64	0.08617476
146	0xbe01848b	-0.12648217
147	0xbcaa37e5	-0.020778606
148	0xbdefdab4	-0.11711636
149	0xbc951b47	-0.018201483
150	0xbdd43a5f	-0.10362696
151	0xbe2b4cf5	-0.16728576
152	0x3bb80061	0.0056152795
153	0xbdb11956	-0.086474106
154	0xbdc3052a	-0.09522469
155	0x3b0c3a8e	0.0021397206
156	0x3e3f7bd5	0.18699582
157	0x3dab4f03	0.0836468
158	0xbda11163	-0.078646444
159	0xbd0e0486	-0.034672283
160	0x3b94912f	0.004533909
161	0xbde80f45	-0.113310374
162	0xbcd4c3ce	-0.025972273
163	0xbe2b1c5f	-0.16710041
164	0x3d6b21df	0.05740535
165	0x3db8b255	0.09018389
166	0xbd6c1a56	-0.057642303
167	0xbd0c6b4f	-0.034282025
168	0x3d7485a0	0.059697747
169	0x3daf9cf7	0.085748605
170	0x3cf01e24	0.029311247
171	0xbdf4d887	-0.11955362
172	0x3d9d61ce	0.076846704
173	0x3c6d096e	0.01446758
174	0xbd22d2b9	-0.039751742
175	0x3cec8da8	0.02887614
176	0xbb839766	-0.004015851
177	0xbe7c64b9	-0.24647798
178	0xbdc387e6	-0.09547405
179	0xbe629b72	-0.2212961
180	0x3aeb5d94	0.0017956966
181	0xbe297c9e	-0.16551444
182	0xbdaab8fd	-0.08336065
183	0x3cb40aab	0.021977743
184	0x3ddd1ce7	0.10796528
185	0x3e0e5ab6	0.13901791
186	0xbc5bda5a	-0.013418758
187	0xbe3cc290	-0.18433595
188	0x3cfb4d78	0.030676588
189	0x3e6ebec5	0.2331496
190	0xbc4a6bda	-0.012354815
191	0x3d793da8	0.060849816
192	0x3d0a0396	0.033694826
193	0x3d70afe6	0.0587615
194	0x3c9c3988	0.019070402
195	0x3d937a7e	0.07201098
196	0xbe0d1040	-0.1377573
197	0x3d17f522	0.03709901
198	0x3d6dfee1	0.0581044
199	0xbdec7189	-0.115450926
200	0xbe08ed47	-0.13371764
201	0x3cd99cbb	0.026563993
202	0xbd9caa01	-0.07649613
203	0x3d9956d1	0.07487262
204	0x3e4da7f9	0.20083608
205	0xbe0b1609	-0.13582624
206	0xbe25e551	-0.16200759
207	0xbaecaed2	-0.0018057472
208	0xbc7cd028	-0.015430488
209	0x3e7b9746	0.24569425
210	0x3d86ea20	0.065876245
211	0x3d9c740b	0.07639321
212	0xbc907158	-0.017632172
213	0x3cb1a9c5	0.021687398
214	0x3d746169	0.05966321
215	0x3c285fe0	0.010276765
216	0x3aa4a7d2	0.0012562221
217	0x3e018ede	0.12652156
218	0x3e176c5a	0.14787427
219	0x3db32bf0	0.08748615
220	0xbd60e6a2	-0.05490745
221	0xbdd1b21c	-0.1023905
222	0x3db28cf5	0.08718292
223	0x3d874dca	0.06606634
224	0xbe28b2f9	-0.16474523
225	0x3cb55b05	0.022138128
226	0xbd3aaa15	-0.04557236
227	0x3ca56572	0.020189974
228	0x3cd1c5fc	0.025607102
229	0x3d615b13	0.055018496
230	0x3d1e5a6f	0.038660463
231	0xbdedb371	-0.11606491
232	0x3c150667	0.009095765
233	0xbe1f4a0f	-0.15555595
234	0x3e154192	0.14575794
235	0x3cd633fb	0.026147833
236	0x3d69a793	0.057044577
237	0xbe20321c	-0.15644115
238	0x3e1baf3e	0.15203568
239	0xbb7c9376	-0.0038540042
240	0x3e0590fb	0.13043587
241	0xbdd45298	-0.10367316
242	0x3dd3f175	0.10348789
243	0xbc59e14d	-0.013298345
244	0xbd26bd5c	-0.04070793
245	0xbd3a60ce	-0.045502476
246	0xbd92ea3a	-0.071735814
247	0xbdd96579	-0.106150575
248	0x3de64794	0.11244121
249	0x3d7a5751	0.061118428
250	0xbcec0820	-0.028812468
251	0x3d260402	0.040531166
252	0x3a97de92	0.0011586717
253	0x3e967824	0.29388535
254	0xbde50c5f	-0.11184
255	0xbda9b491	-0.082863934

fc2.bias f4 [150]
0	0xbd2ddc4d	-0.042446423
1	0xbc61e150	-0.013786629
2	0x3d8fb9e9	0.070178814
3	0x3c43c85a	0.011949623
4	0x3db1b892	0.08677782
5	0xbcc59c61	-0.024122419
6	0x3d56798c	0.05236201
7	0x3d759282	0.059954174
8	0xbd79ab6a	-0.06095449
9	0x3ce360be	0.027756091
10	0xbbb723d6	-0.005588989
11	0xbdbecb4e	-0.09316121
12	0x3c99b295	0.018761912
13	0x3d768299	0.06018314
14	0x3bb9113d	0.005647807
15	0x3c66cf6f	0.014087542
16	0xbc2887d4	-0.01028629
17	0xbd1d87ec	-0.038459703
18	0xbd398214	-0.045290068
19	0x3cea795b	0.02862232
20	0x3ce6d085	0.028175602
21	0xbd7d4786	-0.06183579
22	0xbcee00d9	-0.029053139
23	0xbcf8af7a	-0.030357111
24	0x3cdc2fe3	0.026878303
25	0xbd9c20c2	-0.076234356
26	0x3d945c3d	0.072441556
27	0x3c81aba8	0.015828922
28	0x3cb9d5b8	0.022684917
29	0x3d457f13	0.04821689
30	0xbe1fb3e1	-0.15595962
31	0x3d876bea	0.0661238
32	0xbd613a54	-0.054987267
33	0xbd8d7c1c	-0.069084376
34	0x3d0b090e	0.033944182
35	0x3cfc6b2a	0.030812819
36	0x3d374343	0.04474188
37	0xbd8d781b	-0.06907674
38	0xbd28a18e	-0.041169696
39	0xbd4486b8	-0.04798004
40	0x3dc38342	0.0954652
41	0xbd66a654	-0.056310967
42	0xbd5b6c3d	-0.05357002
43	0x3d534b44	0.05158545
44	0xbd09d044	-0.033645883
45	0x3dcc3963	0.09971883
46	0x3d23ed78	0.04002139
47	0xbcd0f3a2	-0.025506798
48	0xbd905db0	-0.070491195
49	0x3dbdad39	0.09261555
50	0x38bb7457	8.938525e-05
51	0xbc88f967	-0.016720487
52	0xbd32cf07	-0.043654468
53	0x3cc97b2e	0.02459487
54	0x3d7c476a	0.061591543
55	0xbdc0634a	-0.09393938
56	0x3deac60d	0.114635564
57	0x3d94c085	0.07263283
58	0x3c613b35	0.013747026
59	0xbd71b98f	-0.059014853
60	0x3d98d732	0.0746292
61	0x3ce8d4b0	0.02842173
62	0xbbe93ee1	-0.0071180915
63	0x3d25afbe	0.040450804
64	0xbd26360d	-0.04057889
65	0x3df35f19	0.11883373
66	0xbc4ff0d3	-0.012691694
67	0xbcb0ce06	-0.021582615
68	0xbd6f6a4c	-0.058450982
69	0x3dd455da	0.103679374
70	0x3d035c97	0.032070722
71	0x3d8f5b5e	0.06999849
72	0x3c511dcf	0.012763455
73	0x3cf1199b	0.029431155
74	0xbd99536e	-0.07486616
75	0x3d4da3a7	0.0502049
76	0x3ccff390	0.025384694
77	0x3da9e7bd	0.08296154
78	0xbd8fb236	-0.07016413
79	0x3af88852	0.0018961525
80	0xbd39cb5a	-0.045359947
81	0xbd194694	-0.037420824
82	0xbcb6c8a8	-0.022312477
83	0xbc9c246a	-0.019060332
84	0x3c63762c	0.013883155
85	0x3dac2d14	0.084070355
86	0x3d78b89e	0.06072294
87	0x3ca7ed68	0.020498946
88	0xbd7a8ae2	-0.061167605
89	0x3d0d60df	0.03451621
90	0xbd59185f	-0.053001758
91	0x3d44b9fb	0.048028927
92	0xba01a60b	-0.0004945702
93	0x3d2164f7	0.03940293
94	0xbc938a01	-0.018010141
95	0x3d688682	0.0567689
96	0xbb624dd2	-0.0034531248
97	0xbdb09323	-0.08621814
98	0x3c7259b4	0.014791895
99	0xbbec1395	-0.007204483
100	0x3db567b0	0.088576674
101	0xbe0d1159	-0.13776149
102	0x3d8244b6	0.06360762
103	0x3de8a7b6	0.11360113
104	0x3d029dda	0.03188882
105	0xbcffa6cd	-0.031207466
106	0x3b8d9636	0.004320885
107	0x3deb515d	0.11490128
108	0x3c9931e3	0.018700546
109	0xbcd23c9f	-0.025663672
110	0x3c2f1971	0.010687218
111	0x3bc2c72c	0.0059441533
112	0x3b981011	0.004640587
113	0x3db2f923	0.08738925
114	0x3df58417	0.11988085
115	0xbd02feca	-0.031981267
116	0x3d004094	0.031311586
117	0xbd8bb2f5	-0.06821243
118	0x3d3bd1ed	0.045854498
119	0xbb92da21	-0.0044815694
120	0xbda4e12c	-0.080507606
121	0xb826c894	-3.9764287e-05
122	0xbdd245cc	-0.10267219
123	0x3c99db56	0.018781345
124	0x3c779cdf	0.015113085
125	0x3d334f8e	0.04377704
126	0x3dbf17db	0.09330722
127	0xbd476914	-0.048684195
128	0x3d119412	0.0355416
129	0xbcfc25bf	-0.030779717
130	0x3dd9426c	0.10608372
131	0xbc20fbef	-0.009825691
132	0x3d83dbcf	0.064384095
133	0xbba9096b	-0.0051585934
134	0x3d48cba2	0.049022324
135	0x3d4a1c62	0.049343474
136	0x3db28e3d	0.08718536
137	0xbc9c8fcc	-0.019111536
138	0x3de0838e	0.10962592
139	0xbcd7c09a	-0.026336957
140	0x3d3baad2	0.045817204
141	0xbddd9f41	-0.10821391
142	0xbd133d7d	-0.03594731
143	0xbd95c87a	-0.073136285
144	0xbd3d8f86	-0.046279453
145	0x3dc93226	0.09824018
146	0x3dd465b5	0.103709616
147	0x3b8906a9	0.004181702
148	0xbcdfe2a7	-0.027329756
149	0xbd052477	-0.03250548

fc3.weight f4 [2, 150]
0	0x3e19d114	0.15021163
1	0x3e70026b	0.23438422
2	0xbde82616	-0.11335389
3	0x3d7aae40	0.061201334
4	0x3d0064bc	0.031346068
5	0x3e32c07d	0.17456241
6	0xbc62020e	-0.013794435
7	0x3e2899dc	0.16464943
8	0x3d4960bc	0.04916452
9	0x3dc43a00	0.09581375
10	0x3e68ab04	0.22721487
11	0x3dba7d59	0.091059394
12	0xbe04947e	-0.1294727
13	0xbdbdf5ce	-0.09275399
14	0xbbf21e56	-0.00738887
15	0x3d106f1e	0.03526222
16	0x3da48be3	0.08034494
17	0x3e28339a	0.16425934
18	0xbed66a42	-0.41877943
19	0x3d6957de	0.056968562
20	0xbd8f9742	-0.07011272
21	0xbe55d63c	-0.20882505
22	0x3dafff05	0.08593563
23	0xbece5d3c	-0.40305507
24	0xbde631e0	-0.11239982
25	0x3e6b7deb	0.22997253
26	0x3c2f5046	0.010700291
27	0xbd93cb15	-0.07216469
28	0xbe78cf3c	-0.24297804
29	0xbdce0584	-0.10059646
30	0xbb58dd4a	-0.0033090883
31	0x3d73a96c	0.059487745
32	0x3d9a2ed9	0.07528467
33	0x3c9557f3	0.018230414
34	0xbeff1d80	-0.49827194
35	0x3dd01b1f	0.10161423
36	0x3da6d0a2	0.08145262
37	0xbde0030f	-0.109380834
38	0xbb758abc	-0.0037466725
39	0xbe18909c	-0.14898914
40	0x3e307ab6	0.1723431
41	0xbdd2cccf	-0.102929704
42	0xbe567a4f	-0.20945095
43	0xbdd617c6	-0.10453753
44	0xbd8783b1	-0.06616915
45	0x3b2aaf3e	0.0026044394
46	0xbdfb87e2	-0.12281777
47	0xbe96104b	-0.29309306
48	0xbe9633d2	-0.2933641
49	0x3d999cad	0.07500587
50	0x3c302780	0.010751605
51	0xbe1b3f86	-0.15160951
52	0xbbf269cd	-0.0073978663
53	0xbccad286	-0.024758589
54	0xbdc0ff90	-0.09423745
55	0xbe72b140	-0.23700428
56	0xbe1186af	-0.14211534
57	0xbdb5272a	-0.088453606
58	0x3e872a52	0.26399475
59	0xbe0a42ce	-0.13502046
60	0x3ba94984	0.0051662344
61	0xbd14e71f	-0.036353227
62	0xbc243c94	-0.010024209
63	0x3dc18f39	0.09451146
64	0xbe2f8648	-0.17141068
65	0x3c528e16	0.012851259
66	0x3d18be76	0.037291013
67	0x3e03c5a9	0.1286837
68	0xbd1cbeea	-0.038268007
69	0x3e1dd8d0	0.15414739
70	0xbcf198d3	-0.029491818
71	0xbd0374b3	-0.032093715
72	0xbe11b02f	-0.14227365
73	0x3c19e784	0.0093935765
74	0xbcf5d559	-0.030008959
75	0xbeab8152	-0.334971
76	0x3e4e1d3e	0.20128343
77	0xbe1e4d2b	-0.15459125
78	0xbe14cc3a	-0.14531031
79	0xbe6998a7	-0.22812138
80	0x3a8f1ec2	0.0010919201
81	0xbdb4af11	-0.08822454
82	0xbe1d7ffd	-0.15380855
83	0x3dc6831a	0.096929744
84	0xbd402e46	-0.04691913
85	0x3e2f509b	0.17120592
86	0x3e73b89b	0.2380089
87	0x3df1cacc	0.118062586
88	0x3c94c72d	0.01816138
89	0xbb793624	-0.0038026655
90	0x3d6ce9f7	0.057840314
91	0xbce7c8ca	-0.028293986
92	0xbe3c8f9e	-0.1841416
93	0xbcd6655d	-0.02617138
94	0x3e1acb42	0.15116599
95	0xbd79ca07	-0.060983684
96	0xbe283c29	-0.164292
97	0x3e81c44e	0.2534508
98	0xbe0f9e59	-0.14025249
99	0xbe483b49	-0.19553865
100	0x3db5411a	0.08850308
101	0x3df36c2e	0.11885868
102	0x3d91f106	0.0712605
103	0x3e0107cf	0.12600635
104	0x3c9c7e10	0.01910308
105	0x3e032d2a	0.12810197
106	0xba2f15fb	-0.00066789956
107	0xbdf2438c	-0.1182929
108	0xbcaa8e9c	-0.020819955
109	0xbe695b4b	-0.22788732
110	0xbe8e9896	-0.2785079
111	0x3dcee17a	0.101016
112	0x3da64430	0.081184745
113	0x3dc39857	0.09550541
114	0x3ddeebae	0.10884796
115	0xbe297b0b	-0.16550843
116	0x3e72aafc	0.23698038
117	0xbb484845	-0.0030560654
118	0x3ca221a1	0.019791426
119	0xbe5ab440	-0.21357822
120	0x3e2cf9ea	0.1689221
121	0xbdd96884	-0.10615638
122	0xbe915415	-0.28384462
123	0x3d9f3c05	0.0777512
124	0x3c99d51d	0.018778378
125	0xbeaef481	-0.34170917
126	0xbdd884de	-0.105722174
127	0x3d0b3821	0.033989076
128	0xbd58e64f	-0.052954014
129	0x3dfe17a7	0.12406855
130	0xbe2d2196	-0.16907343
131	0xbc3648a4	-0.011125717
132	0x3e1595f9	0.14607991
133	0x3b6b085c	0.0035863137
134	0xbb87cdd5	-0.00414441
135	0xbd6411c4	-0.055681005
136	0xbe2bfaed	-0.1679494
137	0x3dcf0e4a	0.10110147
138	0xbd08a3f3	-0.03335948
139	0x3e809141	0.2511082
140	0x3e18ba30	0.14914775
141	0xbe1f4257	-0.1555265
142	0xbb037dbf	-0.0020063964
143	0xbe2d4be8	-0.16923487
144	0xbd49a044	-0.049225107
145	0xbe0f3c19	-0.13987769
146	0x3decb9d5	0.11558882
147	0xbe54902a	-0.20758119
148	0x3e2b8ced	0.16752978
149	0xbd32a478	-0.04361388
150	0x3f0cc835	0.5499299
151	0x3e32c14d	0.17456551
152	0x3dc455c2	0.095866695
153	0xbe5dd297	-0.21662365
154	0xbd92bc81	-0.071648605
155	0x3d3dbbc5	0.04632165
156	0xbe3109a9	-0.17288841
157	0xbdf54bae	-0.119773254
158	0x3dc9bb94	0.09850231
159	0x3de4753b	0.111551724
160	0x3edf1e6c	0.43577898
161	0x3dbcd616	0.09220521
162	0x3dffd419	0.12491626
163	0xbe868404	-0.26272595
164	0xbd520f93	-0.051284384
165	0xbd418587	-0.047246482
166	0x3e6f27bb	0.23355
167	0xbec603e3	-0.3867484
168	0x3da0d1eb	0.07852539
169	0xbd96e3bc	-0.07367656
170	0xbc8dbf78	-0.017303213
171	0xbe2ce2eb	-0.16883437
172	0x3d3d6b48	0.04624489
173	0xbc1d8a62	-0.009615513
174	0xbd45e4a2	-0.048313744
175	0xbeb4be74	-0.35301554
176	0xbe464315	-0.19361527
177	0x3c4e802f	0.012603804
178	0xbc77f89d	-0.015134958
179	0x3e30e958	0.17276514
180	0x3e764607	0.24050151
181	0xbd9c40fc	-0.07629582
182	0x3e4ee1eb	0.20203368
183	0x3d565b5c	0.05233322
184	0xbd41e45c	-0.04733692
185	0xbe1b1eed	-0.15148516
186	0xbdfce29e	-0.12347911
187	0x3d080c2d	0.033214737
188	0xbdfa8a0c	-0.122333616
189	0x3e163ee3	0.14672427
190	0xbe449360	-0.19196844
191	0x3e13c945	0.14432247
192	0x3c7b704a	0.015346596
193	0xbe1b2c62	-0.1515365
194	0xbc5ccc99	-0.013476514
195	0xbdd4a5b6	-0.10383169
196	0x3dbd61f2	0.09247197
197	0x3bf707bb	0.0075387633
198	0x3e16c434	0.14723283
199	0xbdf3d007	-0.119049124
200	0xbe052ce3	-0.13005404
201	0x3d9c62ca	0.0763603
202	0x3e4d105a	0.20025769
203	0x3d26b144	0.040696397
204	0xbe163fc3	-0.1467276
205	0x3eb3f2a5	0.3514606
206	0xbddbe93e	-0.10737847
207	0xbea40c8c	-0.32040823
208	0x3c9fa31a	0.019486953
209	0x3e04548e	0.1292288
210	0xbe758556	-0.23976645
211	0x3d31f8c0	0.043450117
212	0xbddbbd0a	-0.10729416
213	0x3e4d4a42	0.20047858
214	0x3e32558f	0.1741545
215	0xbe508abb	-0.20365421
216	0x3e875722	0.26433665
217	0x3e230397	0.15919338
218	0x3d90a197	0.07062071
219	0xbe26ae36	-0.16277394
220	0x3e4f3d8c	0.20238322
221	0x3daf3bf0	0.08556354
222	0x3d8e95b9	0.06962151
223	0xbde8dccf	-0.11370241
224	0x3d1a1a78	0.0376229
225	0xbeb57a9b	-0.35445103
226	0x3daf4e28	0.08559829
227	0xbe18128d	-0.14850827
228	0x3ea053e8	0.31314015
229	0x3ccc6f88	0.024955526
230	0x3e95ec2e	0.29281753
231	0xbcff86dc	-0.031192236
232	0x3c972f87	0.01845528
233	0xbd927198	-0.071505725
234	0xbd82cd88	-0.06386858
235	0xba79d6f9	-0.00095306296
236	0xbd434b5f	-0.0476793
237	0xbda1f18a	-0.07907398
238	0x3e618e27	0.22026883
239	0xbe4160c4	-0.1888457
240	0x3e71fcc4	0.23631579
241	0xbdb9ed0a	-0.09078415
242	0xbdef5072	-0.116852656
243	0xbe08c327	-0.13355695
244	0xbdb86224	-0.09003094
245	0xbe614d8f	-0.22002243
246	0xbe18f881	-0.14938547
247	0xbd3fbce0	-0.046810985
248	0xbe711a55	-0.23545201
249	0xbde5f217	-0.112278156
250	0x3e03d2ea	0.12873426
251	0x3e9e9e1b	0.3098
252	0xbd6e7320	-0.05821526
253	0xbe31d09b	-0.17364733
254	0x3e51ee4d	0.20501061
255	0x3c5f2342	0.013619246

fc3.bias f4 [2]
0	0xbda9c336	-0.08289187
1	0xbd0d30ea	-0.034470476
